…
    source: "/home/lab-xiong.jiangfeng/Projects/doge/dataset/train/feat/resnext299_train"
    batch_size: 512
    backend: LMDB
  }
}
layer {
  name: "inception-v4"
  type: "Data"
  top: "inception-v4"
  include {
    phase: TRAIN
  }
  data_param {
    source: "/home/lab-xiong.jiangfeng/Projects/doge/dataset/train/feat/inception-v4_train"
    batch_size: 512
    backend: LMDB
  }
}
layer {
  name: "resnet50_label"
  type: "Data"
  top: "label"
  include {
    phase: TRAIN
  }
  data_param {
    source: "/home/lab-xiong.jiangfeng/Projects/doge/dataset/train/feat/resnet50_label"
    batch_size: 512
    backend: LMDB
  }
}
layer {
  name: "ensemble_feature"
  type: "Concat"
  bottom: "resnet50"
  bottom: "resnext224"
  bottom: "resnext299"
  bottom: "inception-v4"
  top: "ensemble_feature"
}
layer {
  name: "bn_fea"
  type: "BatchNorm"
  bottom: "ensemble_feature"
  top: "bn_fea"
}
layer {
  name: "scale_fea"
  type: "Scale"
  bottom: "bn_fea"
  top: "scale_fea"
  scale_param {
    bias_term: true
  }
}
layer {
  name: "drop_fea"
  type: "Dropout"
  bottom: "scale_fea"
  top: "scale_fea"
  dropout_param {
    dropout_ratio: 0.9
  }
}
layer {
  name: "fc1"
  type: "InnerProduct"
  bottom: "scale_fea"
  top: "fc1"
  inner_product_param {
    num_output: 1024
    bias_term: false
    weight_filler {
      type: "xavier"
    }
  }
}
layer {
  name: "bn_fc1"
  type: "BatchNorm"
  bottom: "fc1"
  top: "fc1"
}
layer {
  name: "scale_fc1"
  type: "Scale"
  bottom: "fc1"
  top: "fc1"
  scale_param {
    bias_term: true
  }
}
layer {
  name: "fc1_relu"
  type: "ReLU"
  bottom: "fc1"
  top: "fc1"
}
layer {
  name: "drop_fc1"
  type: "Dropout"
  bottom: "fc1"
  top: "fc1"
  dropout_param {
    dropout_ratio: 0.8
  }
}
layer {
  name: "fc2"
  type: "InnerProduct"
  bottom: "fc1"
  top: "fc2"
  inner_product_param {
    num_output: 32
    bias_term: false
    weight_filler {
      type: "xavier"
    }
  }
}
layer {
  name: "bn_fc2"
  type: "BatchNorm"
  bottom: "fc2"
  top: "fc2"
}
layer {
  name: "scale_fc2"
  type: "Scale"
  bottom: "fc2"
  top: "fc2"
  scale_param {
    bias_term: true
  }
}
layer {
  name: "fc2_relu"
  type: "ReLU"
  bottom: "fc2"
  top: "fc2"
}
layer {
  name: "drop_fc2"
  type: "Dropout"
  bottom: "fc2"
  top: "fc2"
  dropout_param {
    dropout_ratio: 0.2
  }
}
layer {
  name: "fc100"
  type: "InnerProduct"
  bottom: "fc2"
  top: "fc100"
  inner_product_param {
    num_output: 100
    weight_filler {
      type: "xavier"
    }
    bias_filler {
      type: "constant"
      value: 0
    }
  }
}
layer {
  name: "loss"
  type: "SoftmaxWithLoss"
  bottom: "fc100"
  bottom: "label"
  top: "loss"
}
I0814 17:17:25.992265 13626 layer_factory.hpp:77] Creating layer resnet50
I0814 17:17:25.993285 13626 net.cpp:100] Creating Layer resnet50
I0814 17:17:25.993299 13626 net.cpp:408] resnet50 -> resnet50
I0814 17:17:26.019083 13648 db_lmdb.cpp:35] Opened lmdb /home/lab-xiong.jiangfeng/Projects/doge/dataset/train/feat/resnet50_train
I0814 17:17:26.034224 13626 data_layer.cpp:41] output data size: 512,2048,1,1
I0814 17:17:26.050207 13626 net.cpp:150] Setting up resnet50
I0814 17:17:26.050304 13626 net.cpp:157] Top shape: 512 2048 1 1 (1048576)
I0814 17:17:26.050334 13626 net.cpp:165] Memory required for data: 4194304
I0814 17:17:26.050365 13626 layer_factory.hpp:77] Creating layer resnext224
I0814 17:17:26.050946 13626 net.cpp:100] Creating Layer resnext224
I0814 17:17:26.050961 13626 net.cpp:408] resnext224 -> resnext224
I0814 17:17:26.061429 13650 db_lmdb.cpp:35] Opened lmdb /home/lab-xiong.jiangfeng/Projects/doge/dataset/train/feat/resnext224_train
I0814 17:17:26.061938 13626 data_layer.cpp:41] output data size: 512,2048,1,1
I0814 17:17:26.074857 13626 net.cpp:150] Setting up resnext224
I0814 17:17:26.074915 13626 net.cpp:157] Top shape: 512 2048 1 1 (1048576)
I0814 17:17:26.074919 13626 net.cpp:165] Memory required for data: 8388608
I0814 17:17:26.074928 13626 layer_factory.hpp:77] Creating layer resnext299
I0814 17:17:26.075496 13626 net.cpp:100] Creating Layer resnext299
I0814 17:17:26.075512 13626 net.cpp:408] resnext299 -> resnext299
I0814 17:17:26.086980 13655 db_lmdb.cpp:35] Opened lmdb /home/lab-xiong.jiangfeng/Projects/doge/dataset/train/feat/resnext299_train
I0814 17:17:26.087512 13626 data_layer.cpp:41] output data size: 512,2048,1,1
I0814 17:17:26.111735 13626 net.cpp:150] Setting up resnext299
I0814 17:17:26.111789 13626 net.cpp:157] Top shape: 512 2048 1 1 (1048576)
I0814 17:17:26.111796 13626 net.cpp:165] Memory required for data: 12582912
I0814 17:17:26.111809 13626 layer_factory.hpp:77] Creating layer inception-v4
I0814 17:17:26.112643 13626 net.cpp:100] Creating Layer inception-v4
I0814 17:17:26.112663 13626 net.cpp:408] inception-v4 -> inception-v4
I0814 17:17:26.133836 13657 db_lmdb.cpp:35] Opened lmdb /home/lab-xiong.jiangfeng/Projects/doge/dataset/train/feat/inception-v4_train
I0814 17:17:26.134436 13626 data_layer.cpp:41] output data size: 512,1536,1,1
I0814 17:17:26.149814 13626 net.cpp:150] Setting up inception-v4
I0814 17:17:26.149857 13626 net.cpp:157] Top shape: 512 1536 1 1 (786432)
I0814 17:17:26.149863 13626 net.cpp:165] Memory required for data: 15728640
I0814 17:17:26.149871 13626 layer_factory.hpp:77] Creating layer resnet50_label
I0814 17:17:26.150945 13626 net.cpp:100] Creating Layer resnet50_label
I0814 17:17:26.150964 13626 net.cpp:408] resnet50_label -> label
I0814 17:17:26.166860 13659 db_lmdb.cpp:35] Opened lmdb /home/lab-xiong.jiangfeng/Projects/doge/dataset/train/feat/resnet50_label
I0814 17:17:26.167544 13626 data_layer.cpp:41] output data size: 512,1,1,1
I0814 17:17:26.172163 13626 net.cpp:150] Setting up resnet50_label
I0814 17:17:26.172207 13626 net.cpp:157] Top shape: 512 1 1 1 (512)
I0814 17:17:26.172211 13626 net.cpp:165] Memory required for data: 15730688
I0814 17:17:26.172219 13626 layer_factory.hpp:77] Creating layer ensemble_feature
I0814 17:17:26.172235 13626 net.cpp:100] Creating Layer ensemble_feature
I0814 17:17:26.172299 13626 net.cpp:434] ensemble_feature <- resnet50
I0814 17:17:26.172320 13626 net.cpp:434] ensemble_feature <- resnext224
I0814 17:17:26.172332 13626 net.cpp:434] ensemble_feature <- resnext299
I0814 17:17:26.172336 13626 net.cpp:434] ensemble_feature <- inception-v4
I0814 17:17:26.172344 13626 net.cpp:408] ensemble_feature -> ensemble_feature
I0814 17:17:26.172427 13626 net.cpp:150] Setting up ensemble_feature
I0814 17:17:26.172437 13626 net.cpp:157] Top shape: 512 7680 1 1 (3932160)
I0814 17:17:26.172443 13626 net.cpp:165] Memory required for data: 31459328
I0814 17:17:26.172456 13626 layer_factory.hpp:77] Creating layer bn_fea
I0814 17:17:26.172466 13626 net.cpp:100] Creating Layer bn_fea
I0814 17:17:26.172472 13626 net.cpp:434] bn_fea <- ensemble_feature
I0814 17:17:26.172483 13626 net.cpp:408] bn_fea -> bn_fea
I0814 17:17:26.175168 13626 net.cpp:150] Setting up bn_fea
I0814 17:17:26.175184 13626 net.cpp:157] Top shape: 512 7680 1 1 (3932160)
I0814 17:17:26.175194 13626 net.cpp:165] Memory required for data: 47187968
I0814 17:17:26.175235 13626 layer_factory.hpp:77] Creating layer scale_fea
I0814 17:17:26.175256 13626 net.cpp:100] Creating Layer scale_fea
I0814 17:17:26.175261 13626 net.cpp:434] scale_fea <- bn_fea
I0814 17:17:26.175268 13626 net.cpp:408] scale_fea -> scale_fea
I0814 17:17:26.175333 13626 layer_factory.hpp:77] Creating layer scale_fea
I0814 17:17:26.175477 13626 net.cpp:150] Setting up scale_fea
I0814 17:17:26.175488 13626 net.cpp:157] Top shape: 512 7680 1 1 (3932160)
I0814 17:17:26.175492 13626 net.cpp:165] Memory required for data: 62916608
I0814 17:17:26.175501 13626 layer_factory.hpp:77] Creating layer drop_fea
I0814 17:17:26.175514 13626 net.cpp:100] Creating Layer drop_fea
I0814 17:17:26.175519 13626 net.cpp:434] drop_fea <- scale_fea
I0814 17:17:26.175525 13626 net.cpp:395] drop_fea -> scale_fea (in-place)
I0814 17:17:26.175565 13626 net.cpp:150] Setting up drop_fea
I0814 17:17:26.175575 13626 net.cpp:157] Top shape: 512 7680 1 1 (3932160)
I0814 17:17:26.175578 13626 net.cpp:165] Memory required for data: 78645248
I0814 17:17:26.175581 13626 layer_factory.hpp:77] Creating layer fc1
I0814 17:17:26.175593 13626 net.cpp:100] Creating Layer fc1
I0814 17:17:26.175601 13626 net.cpp:434] fc1 <- scale_fea
I0814 17:17:26.175606 13626 net.cpp:408] fc1 -> fc1
I0814 17:17:26.255568 13626 net.cpp:150] Setting up fc1
I0814 17:17:26.255623 13626 net.cpp:157] Top shape: 512 1024 (524288)
I0814 17:17:26.255630 13626 net.cpp:165] Memory required for data: 80742400
I0814 17:17:26.255657 13626 layer_factory.hpp:77] Creating layer bn_fc1
I0814 17:17:26.255677 13626 net.cpp:100] Creating Layer bn_fc1
I0814 17:17:26.255689 13626 net.cpp:434] bn_fc1 <- fc1
I0814 17:17:26.255702 13626 net.cpp:395] bn_fc1 -> fc1 (in-place)
I0814 17:17:26.256011 13626 net.cpp:150] Setting up bn_fc1
I0814 17:17:26.256019 13626 net.cpp:157] Top shape: 512 1024 (524288)
I0814 17:17:26.256023 13626 net.cpp:165] Memory required for data: 82839552
I0814 17:17:26.256050 13626 layer_factory.hpp:77] Creating layer scale_fc1
I0814 17:17:26.256070 13626 net.cpp:100] Creating Layer scale_fc1
I0814 17:17:26.256077 13626 net.cpp:434] scale_fc1 <- fc1
I0814 17:17:26.256083 13626 net.cpp:395] scale_fc1 -> fc1 (in-place)
I0814 17:17:26.256125 13626 layer_factory.hpp:77] Creating layer scale_fc1
I0814 17:17:26.256247 13626 net.cpp:150] Setting up scale_fc1
I0814 17:17:26.256258 13626 net.cpp:157] Top shape: 512 1024 (524288)
I0814 17:17:26.256261 13626 net.cpp:165] Memory required for data: 84936704
I0814 17:17:26.256268 13626 layer_factory.hpp:77] Creating layer fc1_relu
I0814 17:17:26.256285 13626 net.cpp:100] Creating Layer fc1_relu
I0814 17:17:26.256290 13626 net.cpp:434] fc1_relu <- fc1
I0814 17:17:26.256297 13626 net.cpp:395] fc1_relu -> fc1 (in-place)
I0814 17:17:26.773458 13626 net.cpp:150] Setting up fc1_relu
I0814 17:17:26.773519 13626 net.cpp:157] Top shape: 512 1024 (524288)
I0814 17:17:26.773525 13626 net.cpp:165] Memory required for data: 87033856
I0814 17:17:26.773550 13626 layer_factory.hpp:77] Creating layer drop_fc1
I0814 17:17:26.773617 13626 net.cpp:100] Creating Layer drop_fc1
I0814 17:17:26.773627 13626 net.cpp:434] drop_fc1 <- fc1
I0814 17:17:26.773641 13626 net.cpp:395] drop_fc1 -> fc1 (in-place)
I0814 17:17:26.773722 13626 net.cpp:150] Setting up drop_fc1
I0814 17:17:26.773736 13626 net.cpp:157] Top shape: 512 1024 (524288)
I0814 17:17:26.773743 13626 net.cpp:165] Memory required for data: 89131008
I0814 17:17:26.773751 13626 layer_factory.hpp:77] Creating layer fc2
I0814 17:17:26.773767 13626 net.cpp:100] Creating Layer fc2
I0814 17:17:26.773775 13626 net.cpp:434] fc2 <- fc1
I0814 17:17:26.773785 13626 net.cpp:408] fc2 -> fc2
I0814 17:17:26.777170 13626 net.cpp:150] Setting up fc2
I0814 17:17:26.777204 13626 net.cpp:157] Top shape: 512 32 (16384)
I0814 17:17:26.777210 13626 net.cpp:165] Memory required for data: 89196544
I0814 17:17:26.777243 13626 layer_factory.hpp:77] Creating layer bn_fc2
I0814 17:17:26.777268 13626 net.cpp:100] Creating Layer bn_fc2
I0814 17:17:26.777279 13626 net.cpp:434] bn_fc2 <- fc2
I0814 17:17:26.777292 13626 net.cpp:395] bn_fc2 -> fc2 (in-place)
I0814 17:17:26.777685 13626 net.cpp:150] Setting up bn_fc2
I0814 17:17:26.777698 13626 net.cpp:157] Top shape: 512 32 (16384)
I0814 17:17:26.777717 13626 net.cpp:165] Memory required for data: 89262080
I0814 17:17:26.777732 13626 layer_factory.hpp:77] Creating layer scale_fc2
I0814 17:17:26.777762 13626 net.cpp:100] Creating Layer scale_fc2
I0814 17:17:26.777771 13626 net.cpp:434] scale_fc2 <- fc2
I0814 17:17:26.777783 13626 net.cpp:395] scale_fc2 -> fc2 (in-place)
I0814 17:17:26.777859 13626 layer_factory.hpp:77] Creating layer scale_fc2
I0814 17:17:26.778074 13626 net.cpp:150] Setting up scale_fc2
I0814 17:17:26.778087 13626 net.cpp:157] Top shape: 512 32 (16384)
I0814 17:17:26.778095 13626 net.cpp:165] Memory required for data: 89327616
I0814 17:17:26.778112 13626 layer_factory.hpp:77] Creating layer fc2_relu
I0814 17:17:26.778125 13626 net.cpp:100] Creating Layer fc2_relu
I0814 17:17:26.778132 13626 net.cpp:434] fc2_relu <- fc2
I0814 17:17:26.778142 13626 net.cpp:395] fc2_relu -> fc2 (in-place)
I0814 17:17:26.778508 13626 net.cpp:150] Setting up fc2_relu
I0814 17:17:26.778524 13626 net.cpp:157] Top shape: 512 32 (16384)
I0814 17:17:26.778534 13626 net.cpp:165] Memory required for data: 89393152
I0814 17:17:26.778542 13626 layer_factory.hpp:77] Creating layer drop_fc2
I0814 17:17:26.778553 13626 net.cpp:100] Creating Layer drop_fc2
I0814 17:17:26.778571 13626 net.cpp:434] drop_fc2 <- fc2
I0814 17:17:26.778580 13626 net.cpp:395] drop_fc2 -> fc2 (in-place)
I0814 17:17:26.778630 13626 net.cpp:150] Setting up drop_fc2
I0814 17:17:26.778640 13626 net.cpp:157] Top shape: 512 32 (16384)
I0814 17:17:26.778646 13626 net.cpp:165] Memory required for data: 89458688
I0814 17:17:26.778651 13626 layer_factory.hpp:77] Creating layer fc100
I0814 17:17:26.778681 13626 net.cpp:100] Creating Layer fc100
I0814 17:17:26.778690 13626 net.cpp:434] fc100 <- fc2
I0814 17:17:26.778699 13626 net.cpp:408] fc100 -> fc100
I0814 17:17:26.781239 13626 net.cpp:150] Setting up fc100
I0814 17:17:26.781261 13626 net.cpp:157] Top shape: 512 100 (51200)
I0814 17:17:26.781268 13626 net.cpp:165] Memory required for data: 89663488
I0814 17:17:26.781288 13626 layer_factory.hpp:77] Creating layer loss
I0814 17:17:26.781301 13626 net.cpp:100] Creating Layer loss
I0814 17:17:26.781311 13626 net.cpp:434] loss <- fc100
I0814 17:17:26.781318 13626 net.cpp:434] loss <- label
I0814 17:17:26.781329 13626 net.cpp:408] loss -> loss
I0814 17:17:26.781347 13626 layer_factory.hpp:77] Creating layer loss
…
    source: "/home/lab-xiong.jiangfeng/Projects/doge/dataset/train/feat/resnext299_val"
    batch_size: 512
    backend: LMDB
  }
}
layer {
  name: "inception-v4"
  type: "Data"
  top: "inception-v4"
  include {
    phase: TEST
  }
  data_param {
    source: "/home/lab-xiong.jiangfeng/Projects/doge/dataset/train/feat/inception-v4_val"
    batch_size: 512
    backend: LMDB
  }
}
layer {
  name: "resnet50_label"
  type: "Data"
  top: "label"
  include {
    phase: TEST
  }
  data_param {
    source: "/home/lab-xiong.jiangfeng/Projects/doge/dataset/train/feat/resnet50_label_val"
    batch_size: 512
    backend: LMDB
  }
}
layer {
  name: "ensemble_feature"
  type: "Concat"
  bottom: "resnet50"
  bottom: "resnext224"
  bottom: "resnext299"
  bottom: "inception-v4"
  top: "ensemble_feature"
}
layer {
  name: "bn_fea"
  type: "BatchNorm"
  bottom: "ensemble_feature"
  top: "bn_fea"
}
layer {
  name: "scale_fea"
  type: "Scale"
  bottom: "bn_fea"
  top: "scale_fea"
  scale_param {
    bias_term: true
  }
}
layer {
  name: "drop_fea"
  type: "Dropout"
  bottom: "scale_fea"
  top: "scale_fea"
  dropout_param {
    dropout_ratio: 0.9
  }
}
layer {
  name: "fc1"
  type: "InnerProduct"
  bottom: "scale_fea"
  top: "fc1"
  inner_product_param {
    num_output: 1024
    bias_term: false
    weight_filler {
      type: "xavier"
    }
  }
}
layer {
  name: "bn_fc1"
  type: "BatchNorm"
  bottom: "fc1"
  top: "fc1"
}
layer {
  name: "scale_fc1"
  type: "Scale"
  bottom: "fc1"
  top: "fc1"
  scale_param {
    bias_term: true
  }
}
layer {
  name: "fc1_relu"
  type: "ReLU"
  bottom: "fc1"
  top: "fc1"
}
layer {
  name: "drop_fc1"
  type: "Dropout"
  bottom: "fc1"
  top: "fc1"
  dropout_param {
    dropout_ratio: 0.8
  }
}
layer {
  name: "fc2"
  type: "InnerProduct"
  bottom: "fc1"
  top: "fc2"
  inner_product_param {
    num_output: 32
    bias_term: false
    weight_filler {
      type: "xavier"
    }
  }
}
layer {
  name: "bn_fc2"
  type: "BatchNorm"
  bottom: "fc2"
  top: "fc2"
}
layer {
  name: "scale_fc2"
  type: "Scale"
  bottom: "fc2"
  top: "fc2"
  scale_param {
    bias_term: true
  }
}
layer {
  name: "fc2_relu"
  type: "ReLU"
  bottom: "fc2"
  top: "fc2"
}
layer {
  name: "drop_fc2"
  type: "Dropout"
  bottom: "fc2"
  top: "fc2"
  dropout_param {
    dropout_ratio: 0.2
  }
}
layer {
  name: "fc100"
  type: "InnerProduct"
  bottom: "fc2"
  top: "fc100"
  inner_product_param {
    num_output: 100
    weight_filler {
      type: "xavier"
    }
    bias_filler {
      type: "constant"
      value: 0
    }
  }
}
layer {
  name: "loss"
  type: "SoftmaxWithLoss"
  bottom: "fc100"
  bottom: "label"
  top: "loss"
}
layer {
  name: "accuracy_top1"
  type: "Accuracy"
  bottom: "fc100"
  bottom: "label"
  top: "accuracy_top1"
  include {
    phase: TEST
  }
}
layer {
  name: "accuracy_top5"
  type: "Accuracy"
  bottom: "fc100"
  bottom: "label"
  top: "accuracy_top5"
  include {
    phase: TEST
  }
  accuracy_param {
    top_k: 5
  }
}
I0814 17:17:26.783568 13626 layer_factory.hpp:77] Creating layer resnet50
I0814 17:17:26.784337 13626 net.cpp:100] Creating Layer resnet50
I0814 17:17:26.784374 13626 net.cpp:408] resnet50 -> resnet50
I0814 17:17:26.798032 13670 db_lmdb.cpp:35] Opened lmdb /home/lab-xiong.jiangfeng/Projects/doge/dataset/train/feat/resnet50_val
I0814 17:17:26.798773 13626 data_layer.cpp:41] output data size: 512,2048,1,1
I0814 17:17:26.858783 13626 net.cpp:150] Setting up resnet50
I0814 17:17:26.858866 13626 net.cpp:157] Top shape: 512 2048 1 1 (1048576)
I0814 17:17:26.858872 13626 net.cpp:165] Memory required for data: 4194304
I0814 17:17:26.858883 13626 layer_factory.hpp:77] Creating layer resnext224
I0814 17:17:26.859571 13626 net.cpp:100] Creating Layer resnext224
I0814 17:17:26.859587 13626 net.cpp:408] resnext224 -> resnext224
I0814 17:17:26.871680 13672 db_lmdb.cpp:35] Opened lmdb /home/lab-xiong.jiangfeng/Projects/doge/dataset/train/feat/resnext224_val
I0814 17:17:26.872478 13626 data_layer.cpp:41] output data size: 512,2048,1,1
I0814 17:17:26.887917 13626 net.cpp:150] Setting up resnext224
I0814 17:17:26.887966 13626 net.cpp:157] Top shape: 512 2048 1 1 (1048576)
I0814 17:17:26.887971 13626 net.cpp:165] Memory required for data: 8388608
I0814 17:17:26.887979 13626 layer_factory.hpp:77] Creating layer resnext299
I0814 17:17:26.888562 13626 net.cpp:100] Creating Layer resnext299
I0814 17:17:26.888660 13626 net.cpp:408] resnext299 -> resnext299
I0814 17:17:26.928148 13674 db_lmdb.cpp:35] Opened lmdb /home/lab-xiong.jiangfeng/Projects/doge/dataset/train/feat/resnext299_val
I0814 17:17:26.928887 13626 data_layer.cpp:41] output data size: 512,2048,1,1
I0814 17:17:26.946600 13626 net.cpp:150] Setting up resnext299
I0814 17:17:26.946648 13626 net.cpp:157] Top shape: 512 2048 1 1 (1048576)
I0814 17:17:26.946662 13626 net.cpp:165] Memory required for data: 12582912
I0814 17:17:26.946672 13626 layer_factory.hpp:77] Creating layer inception-v4
I0814 17:17:26.947360 13626 net.cpp:100] Creating Layer inception-v4
I0814 17:17:26.947378 13626 net.cpp:408] inception-v4 -> inception-v4
I0814 17:17:26.978256 13679 db_lmdb.cpp:35] Opened lmdb /home/lab-xiong.jiangfeng/Projects/doge/dataset/train/feat/inception-v4_val
I0814 17:17:26.979003 13626 data_layer.cpp:41] output data size: 512,1536,1,1
I0814 17:17:27.000012 13626 net.cpp:150] Setting up inception-v4
I0814 17:17:27.000061 13626 net.cpp:157] Top shape: 512 1536 1 1 (786432)
I0814 17:17:27.000071 13626 net.cpp:165] Memory required for data: 15728640
I0814 17:17:27.000080 13626 layer_factory.hpp:77] Creating layer resnet50_label
I0814 17:17:27.000850 13626 net.cpp:100] Creating Layer resnet50_label
I0814 17:17:27.000882 13626 net.cpp:408] resnet50_label -> label
I0814 17:17:27.020391 13681 db_lmdb.cpp:35] Opened lmdb /home/lab-xiong.jiangfeng/Projects/doge/dataset/train/feat/resnet50_label_val
I0814 17:17:27.021008 13626 data_layer.cpp:41] output data size: 512,1,1,1
I0814 17:17:27.021353 13626 net.cpp:150] Setting up resnet50_label
I0814 17:17:27.021425 13626 net.cpp:157] Top shape: 512 1 1 1 (512)
I0814 17:17:27.021430 13626 net.cpp:165] Memory required for data: 15730688
I0814 17:17:27.021446 13626 layer_factory.hpp:77] Creating layer label_resnet50_label_0_split
I0814 17:17:27.021464 13626 net.cpp:100] Creating Layer label_resnet50_label_0_split
I0814 17:17:27.021474 13626 net.cpp:434] label_resnet50_label_0_split <- label
I0814 17:17:27.021507 13626 net.cpp:408] label_resnet50_label_0_split -> label_resnet50_label_0_split_0
I0814 17:17:27.021526 13626 net.cpp:408] label_resnet50_label_0_split -> label_resnet50_label_0_split_1
I0814 17:17:27.021539 13626 net.cpp:408] label_resnet50_label_0_split -> label_resnet50_label_0_split_2
I0814 17:17:27.021769 13626 net.cpp:150] Setting up label_resnet50_label_0_split
I0814 17:17:27.021780 13626 net.cpp:157] Top shape: 512 1 1 1 (512)
I0814 17:17:27.021791 13626 net.cpp:157] Top shape: 512 1 1 1 (512)
I0814 17:17:27.021802 13626 net.cpp:157] Top shape: 512 1 1 1 (512)
I0814 17:17:27.021811 13626 net.cpp:165] Memory required for data: 15736832
I0814 17:17:27.021817 13626 layer_factory.hpp:77] Creating layer ensemble_feature
I0814 17:17:27.021832 13626 net.cpp:100] Creating Layer ensemble_feature
I0814 17:17:27.021842 13626 net.cpp:434] ensemble_feature <- resnet50
I0814 17:17:27.021850 13626 net.cpp:434] ensemble_feature <- resnext224
I0814 17:17:27.021862 13626 net.cpp:434] ensemble_feature <- resnext299
I0814 17:17:27.021869 13626 net.cpp:434] ensemble_feature <- inception-v4
I0814 17:17:27.021881 13626 net.cpp:408] ensemble_feature -> ensemble_feature
I0814 17:17:27.022125 13626 net.cpp:150] Setting up ensemble_feature
I0814 17:17:27.022140 13626 net.cpp:157] Top shape: 512 7680 1 1 (3932160)
I0814 17:17:27.022148 13626 net.cpp:165] Memory required for data: 31465472
I0814 17:17:27.022155 13626 layer_factory.hpp:77] Creating layer bn_fea
I0814 17:17:27.022169 13626 net.cpp:100] Creating Layer bn_fea
I0814 17:17:27.022179 13626 net.cpp:434] bn_fea <- ensemble_feature
I0814 17:17:27.022203 13626 net.cpp:408] bn_fea -> bn_fea
I0814 17:17:27.022573 13626 net.cpp:150] Setting up bn_fea
I0814 17:17:27.022584 13626 net.cpp:157] Top shape: 512 7680 1 1 (3932160)
I0814 17:17:27.022593 13626 net.cpp:165] Memory required for data: 47194112
I0814 17:17:27.022616 13626 layer_factory.hpp:77] Creating layer scale_fea
I0814 17:17:27.022636 13626 net.cpp:100] Creating Layer scale_fea
I0814 17:17:27.022644 13626 net.cpp:434] scale_fea <- bn_fea
I0814 17:17:27.022653 13626 net.cpp:408] scale_fea -> scale_fea
I0814 17:17:27.022740 13626 layer_factory.hpp:77] Creating layer scale_fea
I0814 17:17:27.022953 13626 net.cpp:150] Setting up scale_fea
I0814 17:17:27.022972 13626 net.cpp:157] Top shape: 512 7680 1 1 (3932160)
I0814 17:17:27.022979 13626 net.cpp:165] Memory required for data: 62922752
I0814 17:17:27.022995 13626 layer_factory.hpp:77] Creating layer drop_fea
I0814 17:17:27.023006 13626 net.cpp:100] Creating Layer drop_fea
I0814 17:17:27.023012 13626 net.cpp:434] drop_fea <- scale_fea
I0814 17:17:27.023025 13626 net.cpp:395] drop_fea -> scale_fea (in-place)
I0814 17:17:27.023067 13626 net.cpp:150] Setting up drop_fea
I0814 17:17:27.023079 13626 net.cpp:157] Top shape: 512 7680 1 1 (3932160)
I0814 17:17:27.023144 13626 net.cpp:165] Memory required for data: 78651392
I0814 17:17:27.023151 13626 layer_factory.hpp:77] Creating layer fc1
I0814 17:17:27.023166 13626 net.cpp:100] Creating Layer fc1
I0814 17:17:27.023174 13626 net.cpp:434] fc1 <- scale_fea
I0814 17:17:27.023195 13626 net.cpp:408] fc1 -> fc1
I0814 17:17:27.099185 13626 net.cpp:150] Setting up fc1
I0814 17:17:27.099234 13626 net.cpp:157] Top shape: 512 1024 (524288)
I0814 17:17:27.099238 13626 net.cpp:165] Memory required for data: 80748544
I0814 17:17:27.099249 13626 layer_factory.hpp:77] Creating layer bn_fc1
I0814 17:17:27.099264 13626 net.cpp:100] Creating Layer bn_fc1
I0814 17:17:27.099272 13626 net.cpp:434] bn_fc1 <- fc1
I0814 17:17:27.099297 13626 net.cpp:395] bn_fc1 -> fc1 (in-place)
I0814 17:17:27.099560 13626 net.cpp:150] Setting up bn_fc1
I0814 17:17:27.099568 13626 net.cpp:157] Top shape: 512 1024 (524288)
I0814 17:17:27.099572 13626 net.cpp:165] Memory required for data: 82845696
I0814 17:17:27.099586 13626 layer_factory.hpp:77] Creating layer scale_fc1
I0814 17:17:27.099594 13626 net.cpp:100] Creating Layer scale_fc1
I0814 17:17:27.099598 13626 net.cpp:434] scale_fc1 <- fc1
I0814 17:17:27.099603 13626 net.cpp:395] scale_fc1 -> fc1 (in-place)
I0814 17:17:27.099670 13626 layer_factory.hpp:77] Creating layer scale_fc1
I0814 17:17:27.099814 13626 net.cpp:150] Setting up scale_fc1
I0814 17:17:27.099822 13626 net.cpp:157] Top shape: 512 1024 (524288)
I0814 17:17:27.099827 13626 net.cpp:165] Memory required for data: 84942848
I0814 17:17:27.099838 13626 layer_factory.hpp:77] Creating layer fc1_relu
I0814 17:17:27.099848 13626 net.cpp:100] Creating Layer fc1_relu
I0814 17:17:27.099854 13626 net.cpp:434] fc1_relu <- fc1
I0814 17:17:27.099860 13626 net.cpp:395] fc1_relu -> fc1 (in-place)
I0814 17:17:27.101306 13626 net.cpp:150] Setting up fc1_relu
I0814 17:17:27.101325 13626 net.cpp:157] Top shape: 512 1024 (524288)
I0814 17:17:27.101335 13626 net.cpp:165] Memory required for data: 87040000
I0814 17:17:27.101342 13626 layer_factory.hpp:77] Creating layer drop_fc1
I0814 17:17:27.101356 13626 net.cpp:100] Creating Layer drop_fc1
I0814 17:17:27.101362 13626 net.cpp:434] drop_fc1 <- fc1
I0814 17:17:27.101371 13626 net.cpp:395] drop_fc1 -> fc1 (in-place)
I0814 17:17:27.101411 13626 net.cpp:150] Setting up drop_fc1
I0814 17:17:27.101420 13626 net.cpp:157] Top shape: 512 1024 (524288)
I0814 17:17:27.101423 13626 net.cpp:165] Memory required for data: 89137152
I0814 17:17:27.101428 13626 layer_factory.hpp:77] Creating layer fc2
I0814 17:17:27.101444 13626 net.cpp:100] Creating Layer fc2
I0814 17:17:27.101452 13626 net.cpp:434] fc2 <- fc1
I0814 17:17:27.101460 13626 net.cpp:408] fc2 -> fc2
I0814 17:17:27.101779 13626 net.cpp:150] Setting up fc2
I0814 17:17:27.101788 13626 net.cpp:157] Top shape: 512 32 (16384)
I0814 17:17:27.101793 13626 net.cpp:165] Memory required for data: 89202688
I0814 17:17:27.101799 13626 layer_factory.hpp:77] Creating layer bn_fc2
I0814 17:17:27.101822 13626 net.cpp:100] Creating Layer bn_fc2
I0814 17:17:27.101827 13626 net.cpp:434] bn_fc2 <- fc2
I0814 17:17:27.101833 13626 net.cpp:395] bn_fc2 -> fc2 (in-place)
I0814 17:17:27.102087 13626 net.cpp:150] Setting up bn_fc2
I0814 17:17:27.102095 13626 net.cpp:157] Top shape: 512 32 (16384)
I0814 17:17:27.102102 13626 net.cpp:165] Memory required for data: 89268224
I0814 17:17:27.102118 13626 layer_factory.hpp:77] Creating layer scale_fc2
I0814 17:17:27.102128 13626 net.cpp:100] Creating Layer scale_fc2
I0814 17:17:27.102135 13626 net.cpp:434] scale_fc2 <- fc2
I0814 17:17:27.102141 13626 net.cpp:395] scale_fc2 -> fc2 (in-place)
I0814 17:17:27.102195 13626 layer_factory.hpp:77] Creating layer scale_fc2
I0814 17:17:27.102342 13626 net.cpp:150] Setting up scale_fc2
I0814 17:17:27.102350 13626 net.cpp:157] Top shape: 512 32 (16384)
I0814 17:17:27.102354 13626 net.cpp:165] Memory required for data: 89333760
I0814 17:17:27.102370 13626 layer_factory.hpp:77] Creating layer fc2_relu
I0814 17:17:27.102381 13626 net.cpp:100] Creating Layer fc2_relu
I0814 17:17:27.102388 13626 net.cpp:434] fc2_relu <- fc2
I0814 17:17:27.102422 13626 net.cpp:395] fc2_relu -> fc2 (in-place)
I0814 17:17:27.102653 13626 net.cpp:150] Setting up fc2_relu
I0814 17:17:27.102665 13626 net.cpp:157] Top shape: 512 32 (16384)
I0814 17:17:27.102672 13626 net.cpp:165] Memory required for data: 89399296
I0814 17:17:27.102679 13626 layer_factory.hpp:77] Creating layer drop_fc2
I0814 17:17:27.102689 13626 net.cpp:100] Creating Layer drop_fc2
I0814 17:17:27.102696 13626 net.cpp:434] drop_fc2 <- fc2
I0814 17:17:27.102704 13626 net.cpp:395] drop_fc2 -> fc2 (in-place)
I0814 17:17:27.102742 13626 net.cpp:150] Setting up drop_fc2
I0814 17:17:27.102751 13626 net.cpp:157] Top shape: 512 32 (16384)
I0814 17:17:27.102754 13626 net.cpp:165] Memory required for data: 89464832
I0814 17:17:27.102761 13626 layer_factory.hpp:77] Creating layer fc100
I0814 17:17:27.102771 13626 net.cpp:100] Creating Layer fc100
I0814 17:17:27.102777 13626 net.cpp:434] fc100 <- fc2
I0814 17:17:27.102782 13626 net.cpp:408] fc100 -> fc100
I0814 17:17:27.102955 13626 net.cpp:150] Setting up fc100
I0814 17:17:27.102964 13626 net.cpp:157] Top shape: 512 100 (51200)
I0814 17:17:27.102969 13626 net.cpp:165] Memory required for data: 89669632
I0814 17:17:27.102977 13626 layer_factory.hpp:77] Creating layer fc100_fc100_0_split
I0814 17:17:27.102988 13626 net.cpp:100] Creating Layer fc100_fc100_0_split
I0814 17:17:27.102995 13626 net.cpp:434] fc100_fc100_0_split <- fc100
I0814 17:17:27.103008 13626 net.cpp:408] fc100_fc100_0_split -> fc100_fc100_0_split_0
I0814 17:17:27.103018 13626 net.cpp:408] fc100_fc100_0_split -> fc100_fc100_0_split_1
I0814 17:17:27.103029 13626 net.cpp:408] fc100_fc100_0_split -> fc100_fc100_0_split_2
I0814 17:17:27.103112 13626 net.cpp:150] Setting up fc100_fc100_0_split
I0814 17:17:27.103121 13626 net.cpp:157] Top shape: 512 100 (51200)
I0814 17:17:27.103127 13626 net.cpp:157] Top shape: 512 100 (51200)
I0814 17:17:27.103134 13626 net.cpp:157] Top shape: 512 100 (51200)
I0814 17:17:27.103140 13626 net.cpp:165] Memory required for data: 90284032
I0814 17:17:27.103149 13626 layer_factory.hpp:77] Creating layer loss
I0814 17:17:27.103158 13626 net.cpp:100] Creating Layer loss
I0814 17:17:27.103164 13626 net.cpp:434] loss <- fc100_fc100_0_split_0
I0814 17:17:27.103169 13626 net.cpp:434] loss <- label_resnet50_label_0_split_0
I0814 17:17:27.103183 13626 net.cpp:408] loss -> loss
…
