…
I0803 22:42:23.900017 14126 net.cpp:58] Initializing net from parameters: 
name: "CUBCompactBilinearNet"
state {
  phase: TRAIN
  level: 0
  stage: ""
}
layer {
  name: "data"
  type: "ImageData"
  top: "data"
  top: "label"
  include {
    phase: TRAIN
  }
  transform_param {
    mirror: true
    crop_size: 448
    mean_value: 104
    mean_value: 117
    mean_value: 124
  }
  image_data_param {
    source: "examples/compact_bilinear/train_images.txt"
    batch_size: 8
    shuffle: true
    new_height: 512
    new_width: 512
    root_folder: "examples/compact_bilinear/cub/images/"
  }
}
layer {
  name: "conv1_1"
  type: "Convolution"
  bottom: "data"
  top: "conv1_1"
  param {
    lr_mult: 1
    decay_mult: 1
  }
  param {
    lr_mult: 2
    decay_mult: 2
  }
  convolution_param {
    num_output: 64
    pad: 1
    kernel_size: 3
  }
}
layer {
  name: "relu1_1"
  type: "ReLU"
  bottom: "conv1_1"
  top: "conv1_1"
}
layer {
  name: "conv1_2"
  type: "Convolution"
  bottom: "conv1_1"
  top: "conv1_2"
  param {
    lr_mult: 1
    decay_mult: 1
  }
  param {
    lr_mult: 2
    decay_mult: 2
  }
  convolution_param {
    num_output: 64
    pad: 1
    kernel_size: 3
  }
}
layer {
  name: "relu1_2"
  type: "ReLU"
  bottom: "conv1_2"
  top: "conv1_2"
}
layer {
  name: "pool1"
  type: "Pooling"
  bottom: "conv1_2"
  top: "pool1"
  pooling_param {
    pool: MAX
    kernel_size: 2
    stride: 2
  }
}
layer {
  name: "conv2_1"
  type: "Convolution"
  bottom: "pool1"
  top: "conv2_1"
  param {
    lr_mult: 1
    decay_mult: 1
  }
  param {
    lr_mult: 2
    decay_mult: 2
  }
  convolution_param {
    num_output: 128
    pad: 1
    kernel_size: 3
  }
}
layer {
  name: "relu2_1"
  type: "ReLU"
  bottom: "conv2_1"
  top: "conv2_1"
}
layer {
  name: "conv2_2"
  type: "Convolution"
  bottom: "conv2_1"
  top: "conv2_2"
  param {
    lr_mult: 1
    decay_mult: 1
  }
  param {
    lr_mult: 2
    decay_mult: 2
  }
  convolution_param {
    num_output: 128
    pad: 1
    kernel_size: 3
  }
}
layer {
  name: "relu2_2"
  type: "ReLU"
  bottom: "conv2_2"
  top: "conv2_2"
}
layer {
  name: "pool2"
  type: "Pooling"
  bottom: "conv2_2"
  top: "pool2"
  pooling_param {
    pool: MAX
    kernel_size: 2
    stride: 2
  }
}
layer {
  name: "conv3_1"
  type: "Convolution"
  bottom: "pool2"
  top: "conv3_1"
  param {
    lr_mult: 1
    decay_mult: 1
  }
  param {
    lr_mult: 2
    decay_mult: 2
  }
  convolution_param {
    num_output: 256
    pad: 1
    kernel_size: 3
  }
}
layer {
  name: "relu3_1"
  type: "ReLU"
  bottom: "conv3_1"
  top: "conv3_1"
}
layer {
  name: "conv3_2"
  type: "Convolution"
  bottom: "conv3_1"
  top: "conv3_2"
  param {
    lr_mult: 1
    decay_mult: 1
  }
  param {
    lr_mult: 2
    decay_mult: 2
  }
  convolution_param {
    num_output: 256
    pad: 1
    kernel_size: 3
  }
}
layer {
  name: "relu3_2"
  type: "ReLU"
  bottom: "conv3_2"
  top: "conv3_2"
}
layer {
  name: "conv3_3"
  type: "Convolution"
  bottom: "conv3_2"
  top: "conv3_3"
  param {
    lr_mult: 1
    decay_mult: 1
  }
  param {
    lr_mult: 2
    decay_mult: 2
  }
  convolution_param {
    num_output: 256
    pad: 1
    kernel_size: 3
  }
}
layer {
  name: "relu3_3"
  type: "ReLU"
  bottom: "conv3_3"
  top: "conv3_3"
}
layer {
  name: "pool3"
  type: "Pooling"
  bottom: "conv3_3"
  top: "pool3"
  pooling_param {
    pool: MAX
    kernel_size: 2
    stride: 2
  }
}
layer {
  name: "conv4_1"
  type: "Convolution"
  bottom: "pool3"
  top: "conv4_1"
  param {
    lr_mult: 1
    decay_mult: 1
  }
  param {
    lr_mult: 2
    decay_mult: 2
  }
  convolution_param {
    num_output: 512
    pad: 1
    kernel_size: 3
  }
}
layer {
  name: "relu4_1"
  type: "ReLU"
  bottom: "conv4_1"
  top: "conv4_1"
}
layer {
  name: "conv4_2"
  type: "Convolution"
  bottom: "conv4_1"
  top: "conv4_2"
  param {
    lr_mult: 1
    decay_mult: 1
  }
  param {
    lr_mult: 2
    decay_mult: 2
  }
  convolution_param {
    num_output: 512
    pad: 1
    kernel_size: 3
  }
}
layer {
  name: "relu4_2"
  type: "ReLU"
  bottom: "conv4_2"
  top: "conv4_2"
}
layer {
  name: "conv4_3"
  type: "Convolution"
  bottom: "conv4_2"
  top: "conv4_3"
  param {
    lr_mult: 1
    decay_mult: 1
  }
  param {
    lr_mult: 2
    decay_mult: 2
  }
  convolution_param {
    num_output: 512
    pad: 1
    kernel_size: 3
  }
}
layer {
  name: "relu4_3"
  type: "ReLU"
  bottom: "conv4_3"
  top: "conv4_3"
}
layer {
  name: "pool4"
  type: "Pooling"
  bottom: "conv4_3"
  top: "pool4"
  pooling_param {
    pool: MAX
    kernel_size: 2
    stride: 2
  }
}
layer {
  name: "conv5_1"
  type: "Convolution"
  bottom: "pool4"
  top: "conv5_1"
  param {
    lr_mult: 1
    decay_mult: 1
  }
  param {
    lr_mult: 2
    decay_mult: 2
  }
  convolution_param {
    num_output: 512
    pad: 1
    kernel_size: 3
  }
}
layer {
  name: "relu5_1"
  type: "ReLU"
  bottom: "conv5_1"
  top: "conv5_1"
}
layer {
  name: "conv5_2"
  type: "Convolution"
  bottom: "conv5_1"
  top: "conv5_2"
  param {
    lr_mult: 1
    decay_mult: 1
  }
  param {
    lr_mult: 2
    decay_mult: 2
  }
  convolution_param {
    num_output: 512
    pad: 1
    kernel_size: 3
  }
}
layer {
  name: "relu5_2"
  type: "ReLU"
  bottom: "conv5_2"
  top: "conv5_2"
}
layer {
  name: "conv5_3"
  type: "Convolution"
  bottom: "conv5_2"
  top: "conv5_3"
  param {
    lr_mult: 1
    decay_mult: 1
  }
  param {
    lr_mult: 2
    decay_mult: 2
  }
  convolution_param {
    num_output: 512
    pad: 1
    kernel_size: 3
  }
}
layer {
  name: "relu5_3"
  type: "ReLU"
  bottom: "conv5_3"
  top: "conv5_3"
}
layer {
  name: "bilinear_layer"
  type: "CompactBilinear"
  bottom: "conv5_3"
  bottom: "conv5_3"
  top: "bilinear"
  compact_bilinear_param {
    num_output: 8192
    sum_pool: true
  }
}
layer {
  name: "signed_sqrt_layer"
  type: "SignedSqrt"
  bottom: "bilinear"
  top: "bilinear_sqrt"
}
layer {
  name: "l2_normalization_layer"
  type: "Normalize"
  bottom: "bilinear_sqrt"
  top: "bilinear_l2"
}
layer {
  name: "fc8_cub200"
  type: "InnerProduct"
  bottom: "bilinear_l2"
  top: "fc8_cub"
  param {
    lr_mult: 1
    decay_mult: 1
  }
  param {
    lr_mult: 2
    decay_mult: 2
  }
  inner_product_param {
    num_output: 200
  }
}
layer {
  name: "loss"
  type: "SoftmaxWithLoss"
  bottom: "fc8_cub"
  bottom: "label"
  top: "loss"
}
I0803 22:42:23.901649 14126 layer_factory.hpp:77] Creating layer data
I0803 22:42:23.901787 14126 net.cpp:100] Creating Layer data
I0803 22:42:23.901823 14126 net.cpp:408] data -> data
I0803 22:42:23.901886 14126 net.cpp:408] data -> label
I0803 22:42:23.902582 14126 image_data_layer.cpp:38] Opening file examples/compact_bilinear/train_images.txt
I0803 22:42:23.913759 14126 image_data_layer.cpp:64] Shuffling data
I0803 22:42:23.917359 14126 image_data_layer.cpp:69] A total of 5994 images.
I0803 22:42:23.976778 14126 image_data_layer.cpp:97] output data size: 8,3,448,448
I0803 22:42:24.036679 14126 net.cpp:150] Setting up data
I0803 22:42:24.036726 14126 net.cpp:157] Top shape: 8 3 448 448 (4816896)
I0803 22:42:24.036736 14126 net.cpp:157] Top shape: 8 1 (8)
I0803 22:42:24.036741 14126 net.cpp:165] Memory required for data: 19267616
I0803 22:42:24.036756 14126 layer_factory.hpp:77] Creating layer conv1_1
I0803 22:42:24.036803 14126 net.cpp:100] Creating Layer conv1_1
I0803 22:42:24.036815 14126 net.cpp:434] conv1_1 <- data
I0803 22:42:24.036841 14126 net.cpp:408] conv1_1 -> conv1_1
I0803 22:42:24.538964 14126 net.cpp:150] Setting up conv1_1
I0803 22:42:24.539036 14126 net.cpp:157] Top shape: 8 64 448 448 (102760448)
I0803 22:42:24.539042 14126 net.cpp:165] Memory required for data: 430309408
I0803 22:42:24.539105 14126 layer_factory.hpp:77] Creating layer relu1_1
I0803 22:42:24.539147 14126 net.cpp:100] Creating Layer relu1_1
I0803 22:42:24.539155 14126 net.cpp:434] relu1_1 <- conv1_1
I0803 22:42:24.539170 14126 net.cpp:395] relu1_1 -> conv1_1 (in-place)
I0803 22:42:24.539484 14126 net.cpp:150] Setting up relu1_1
I0803 22:42:24.539510 14126 net.cpp:157] Top shape: 8 64 448 448 (102760448)
I0803 22:42:24.539515 14126 net.cpp:165] Memory required for data: 841351200
I0803 22:42:24.539523 14126 layer_factory.hpp:77] Creating layer conv1_2
I0803 22:42:24.539602 14126 net.cpp:100] Creating Layer conv1_2
I0803 22:42:24.539619 14126 net.cpp:434] conv1_2 <- conv1_1
I0803 22:42:24.539636 14126 net.cpp:408] conv1_2 -> conv1_2
I0803 22:42:24.543740 14126 net.cpp:150] Setting up conv1_2
I0803 22:42:24.543776 14126 net.cpp:157] Top shape: 8 64 448 448 (102760448)
I0803 22:42:24.543781 14126 net.cpp:165] Memory required for data: 1252392992
I0803 22:42:24.543797 14126 layer_factory.hpp:77] Creating layer relu1_2
I0803 22:42:24.543813 14126 net.cpp:100] Creating Layer relu1_2
I0803 22:42:24.543820 14126 net.cpp:434] relu1_2 <- conv1_2
I0803 22:42:24.543829 14126 net.cpp:395] relu1_2 -> conv1_2 (in-place)
I0803 22:42:24.544982 14126 net.cpp:150] Setting up relu1_2
I0803 22:42:24.545001 14126 net.cpp:157] Top shape: 8 64 448 448 (102760448)
I0803 22:42:24.545004 14126 net.cpp:165] Memory required for data: 1663434784
I0803 22:42:24.545008 14126 layer_factory.hpp:77] Creating layer pool1
I0803 22:42:24.545030 14126 net.cpp:100] Creating Layer pool1
I0803 22:42:24.545037 14126 net.cpp:434] pool1 <- conv1_2
I0803 22:42:24.545043 14126 net.cpp:408] pool1 -> pool1
I0803 22:42:24.545114 14126 net.cpp:150] Setting up pool1
I0803 22:42:24.545122 14126 net.cpp:157] Top shape: 8 64 224 224 (25690112)
I0803 22:42:24.545128 14126 net.cpp:165] Memory required for data: 1766195232
I0803 22:42:24.545132 14126 layer_factory.hpp:77] Creating layer conv2_1
I0803 22:42:24.545143 14126 net.cpp:100] Creating Layer conv2_1
I0803 22:42:24.545150 14126 net.cpp:434] conv2_1 <- pool1
I0803 22:42:24.545157 14126 net.cpp:408] conv2_1 -> conv2_1
I0803 22:42:24.546123 14126 net.cpp:150] Setting up conv2_1
I0803 22:42:24.546138 14126 net.cpp:157] Top shape: 8 128 224 224 (51380224)
I0803 22:42:24.546142 14126 net.cpp:165] Memory required for data: 1971716128
I0803 22:42:24.546181 14126 layer_factory.hpp:77] Creating layer relu2_1
I0803 22:42:24.546191 14126 net.cpp:100] Creating Layer relu2_1
I0803 22:42:24.546195 14126 net.cpp:434] relu2_1 <- conv2_1
I0803 22:42:24.546202 14126 net.cpp:395] relu2_1 -> conv2_1 (in-place)
I0803 22:42:24.547415 14126 net.cpp:150] Setting up relu2_1
I0803 22:42:24.547432 14126 net.cpp:157] Top shape: 8 128 224 224 (51380224)
I0803 22:42:24.547437 14126 net.cpp:165] Memory required for data: 2177237024
I0803 22:42:24.547442 14126 layer_factory.hpp:77] Creating layer conv2_2
I0803 22:42:24.547456 14126 net.cpp:100] Creating Layer conv2_2
I0803 22:42:24.547461 14126 net.cpp:434] conv2_2 <- conv2_1
I0803 22:42:24.547469 14126 net.cpp:408] conv2_2 -> conv2_2
I0803 22:42:24.552040 14126 net.cpp:150] Setting up conv2_2
I0803 22:42:24.552093 14126 net.cpp:157] Top shape: 8 128 224 224 (51380224)
I0803 22:42:24.552098 14126 net.cpp:165] Memory required for data: 2382757920
I0803 22:42:24.552110 14126 layer_factory.hpp:77] Creating layer relu2_2
I0803 22:42:24.552124 14126 net.cpp:100] Creating Layer relu2_2
I0803 22:42:24.552129 14126 net.cpp:434] relu2_2 <- conv2_2
I0803 22:42:24.552151 14126 net.cpp:395] relu2_2 -> conv2_2 (in-place)
I0803 22:42:24.552366 14126 net.cpp:150] Setting up relu2_2
I0803 22:42:24.552376 14126 net.cpp:157] Top shape: 8 128 224 224 (51380224)
I0803 22:42:24.552382 14126 net.cpp:165] Memory required for data: 2588278816
I0803 22:42:24.552386 14126 layer_factory.hpp:77] Creating layer pool2
I0803 22:42:24.552428 14126 net.cpp:100] Creating Layer pool2
I0803 22:42:24.552433 14126 net.cpp:434] pool2 <- conv2_2
I0803 22:42:24.552441 14126 net.cpp:408] pool2 -> pool2
I0803 22:42:24.552495 14126 net.cpp:150] Setting up pool2
I0803 22:42:24.552505 14126 net.cpp:157] Top shape: 8 128 112 112 (12845056)
I0803 22:42:24.552510 14126 net.cpp:165] Memory required for data: 2639659040
I0803 22:42:24.552536 14126 layer_factory.hpp:77] Creating layer conv3_1
I0803 22:42:24.552549 14126 net.cpp:100] Creating Layer conv3_1
I0803 22:42:24.552554 14126 net.cpp:434] conv3_1 <- pool2
I0803 22:42:24.552562 14126 net.cpp:408] conv3_1 -> conv3_1
I0803 22:42:24.557932 14126 net.cpp:150] Setting up conv3_1
I0803 22:42:24.557983 14126 net.cpp:157] Top shape: 8 256 112 112 (25690112)
I0803 22:42:24.557989 14126 net.cpp:165] Memory required for data: 2742419488
I0803 22:42:24.558017 14126 layer_factory.hpp:77] Creating layer relu3_1
I0803 22:42:24.558037 14126 net.cpp:100] Creating Layer relu3_1
I0803 22:42:24.558044 14126 net.cpp:434] relu3_1 <- conv3_1
I0803 22:42:24.558055 14126 net.cpp:395] relu3_1 -> conv3_1 (in-place)
I0803 22:42:24.558421 14126 net.cpp:150] Setting up relu3_1
I0803 22:42:24.558437 14126 net.cpp:157] Top shape: 8 256 112 112 (25690112)
I0803 22:42:24.558451 14126 net.cpp:165] Memory required for data: 2845179936
I0803 22:42:24.558456 14126 layer_factory.hpp:77] Creating layer conv3_2
I0803 22:42:24.558472 14126 net.cpp:100] Creating Layer conv3_2
I0803 22:42:24.558480 14126 net.cpp:434] conv3_2 <- conv3_1
I0803 22:42:24.558490 14126 net.cpp:408] conv3_2 -> conv3_2
I0803 22:42:24.565196 14126 net.cpp:150] Setting up conv3_2
I0803 22:42:24.565244 14126 net.cpp:157] Top shape: 8 256 112 112 (25690112)
I0803 22:42:24.565250 14126 net.cpp:165] Memory required for data: 2947940384
I0803 22:42:24.565274 14126 layer_factory.hpp:77] Creating layer relu3_2
I0803 22:42:24.565294 14126 net.cpp:100] Creating Layer relu3_2
I0803 22:42:24.565301 14126 net.cpp:434] relu3_2 <- conv3_2
I0803 22:42:24.565315 14126 net.cpp:395] relu3_2 -> conv3_2 (in-place)
I0803 22:42:24.566031 14126 net.cpp:150] Setting up relu3_2
I0803 22:42:24.566104 14126 net.cpp:157] Top shape: 8 256 112 112 (25690112)
I0803 22:42:24.566128 14126 net.cpp:165] Memory required for data: 3050700832
I0803 22:42:24.566161 14126 layer_factory.hpp:77] Creating layer conv3_3
I0803 22:42:24.566198 14126 net.cpp:100] Creating Layer conv3_3
I0803 22:42:24.566221 14126 net.cpp:434] conv3_3 <- conv3_2
I0803 22:42:24.566284 14126 net.cpp:408] conv3_3 -> conv3_3
I0803 22:42:24.575428 14126 net.cpp:150] Setting up conv3_3
I0803 22:42:24.575502 14126 net.cpp:157] Top shape: 8 256 112 112 (25690112)
I0803 22:42:24.575515 14126 net.cpp:165] Memory required for data: 3153461280
I0803 22:42:24.575554 14126 layer_factory.hpp:77] Creating layer relu3_3
I0803 22:42:24.575592 14126 net.cpp:100] Creating Layer relu3_3
I0803 22:42:24.575611 14126 net.cpp:434] relu3_3 <- conv3_3
I0803 22:42:24.575637 14126 net.cpp:395] relu3_3 -> conv3_3 (in-place)
I0803 22:42:24.576123 14126 net.cpp:150] Setting up relu3_3
I0803 22:42:24.576162 14126 net.cpp:157] Top shape: 8 256 112 112 (25690112)
I0803 22:42:24.576175 14126 net.cpp:165] Memory required for data: 3256221728
I0803 22:42:24.576187 14126 layer_factory.hpp:77] Creating layer pool3
I0803 22:42:24.576225 14126 net.cpp:100] Creating Layer pool3
I0803 22:42:24.576241 14126 net.cpp:434] pool3 <- conv3_3
I0803 22:42:24.576258 14126 net.cpp:408] pool3 -> pool3
I0803 22:42:24.576385 14126 net.cpp:150] Setting up pool3
I0803 22:42:24.576406 14126 net.cpp:157] Top shape: 8 256 56 56 (6422528)
I0803 22:42:24.576422 14126 net.cpp:165] Memory required for data: 3281911840
I0803 22:42:24.576468 14126 layer_factory.hpp:77] Creating layer conv4_1
I0803 22:42:24.576495 14126 net.cpp:100] Creating Layer conv4_1
I0803 22:42:24.576509 14126 net.cpp:434] conv4_1 <- pool3
I0803 22:42:24.576530 14126 net.cpp:408] conv4_1 -> conv4_1
I0803 22:42:24.594590 14126 net.cpp:150] Setting up conv4_1
I0803 22:42:24.594660 14126 net.cpp:157] Top shape: 8 512 56 56 (12845056)
I0803 22:42:24.594719 14126 net.cpp:165] Memory required for data: 3333292064
I0803 22:42:24.594751 14126 layer_factory.hpp:77] Creating layer relu4_1
I0803 22:42:24.594804 14126 net.cpp:100] Creating Layer relu4_1
I0803 22:42:24.594861 14126 net.cpp:434] relu4_1 <- conv4_1
I0803 22:42:24.594887 14126 net.cpp:395] relu4_1 -> conv4_1 (in-place)
I0803 22:42:24.597169 14126 net.cpp:150] Setting up relu4_1
I0803 22:42:24.597296 14126 net.cpp:157] Top shape: 8 512 56 56 (12845056)
I0803 22:42:24.597327 14126 net.cpp:165] Memory required for data: 3384672288
I0803 22:42:24.597359 14126 layer_factory.hpp:77] Creating layer conv4_2
I0803 22:42:24.597414 14126 net.cpp:100] Creating Layer conv4_2
I0803 22:42:24.597442 14126 net.cpp:434] conv4_2 <- conv4_1
I0803 22:42:24.597479 14126 net.cpp:408] conv4_2 -> conv4_2
I0803 22:42:24.609706 14126 net.cpp:150] Setting up conv4_2
I0803 22:42:24.609760 14126 net.cpp:157] Top shape: 8 512 56 56 (12845056)
I0803 22:42:24.609764 14126 net.cpp:165] Memory required for data: 3436052512
I0803 22:42:24.609789 14126 layer_factory.hpp:77] Creating layer relu4_2
I0803 22:42:24.609814 14126 net.cpp:100] Creating Layer relu4_2
I0803 22:42:24.609822 14126 net.cpp:434] relu4_2 <- conv4_2
I0803 22:42:24.609836 14126 net.cpp:395] relu4_2 -> conv4_2 (in-place)
I0803 22:42:24.611414 14126 net.cpp:150] Setting up relu4_2
I0803 22:42:24.611451 14126 net.cpp:157] Top shape: 8 512 56 56 (12845056)
I0803 22:42:24.611456 14126 net.cpp:165] Memory required for data: 3487432736
I0803 22:42:24.611464 14126 layer_factory.hpp:77] Creating layer conv4_3
I0803 22:42:24.611481 14126 net.cpp:100] Creating Layer conv4_3
I0803 22:42:24.611500 14126 net.cpp:434] conv4_3 <- conv4_2
I0803 22:42:24.611512 14126 net.cpp:408] conv4_3 -> conv4_3
I0803 22:42:24.623603 14126 net.cpp:150] Setting up conv4_3
I0803 22:42:24.623644 14126 net.cpp:157] Top shape: 8 512 56 56 (12845056)
I0803 22:42:24.623648 14126 net.cpp:165] Memory required for data: 3538812960
I0803 22:42:24.623663 14126 layer_factory.hpp:77] Creating layer relu4_3
I0803 22:42:24.623677 14126 net.cpp:100] Creating Layer relu4_3
I0803 22:42:24.623683 14126 net.cpp:434] relu4_3 <- conv4_3
I0803 22:42:24.623693 14126 net.cpp:395] relu4_3 -> conv4_3 (in-place)
I0803 22:42:24.623913 14126 net.cpp:150] Setting up relu4_3
I0803 22:42:24.623924 14126 net.cpp:157] Top shape: 8 512 56 56 (12845056)
I0803 22:42:24.623929 14126 net.cpp:165] Memory required for data: 3590193184
I0803 22:42:24.623932 14126 layer_factory.hpp:77] Creating layer pool4
I0803 22:42:24.623942 14126 net.cpp:100] Creating Layer pool4
I0803 22:42:24.623947 14126 net.cpp:434] pool4 <- conv4_3
I0803 22:42:24.623955 14126 net.cpp:408] pool4 -> pool4
I0803 22:42:24.624009 14126 net.cpp:150] Setting up pool4
I0803 22:42:24.624018 14126 net.cpp:157] Top shape: 8 512 28 28 (3211264)
I0803 22:42:24.624022 14126 net.cpp:165] Memory required for data: 3603038240
I0803 22:42:24.624028 14126 layer_factory.hpp:77] Creating layer conv5_1
I0803 22:42:24.624042 14126 net.cpp:100] Creating Layer conv5_1
I0803 22:42:24.624048 14126 net.cpp:434] conv5_1 <- pool4
I0803 22:42:24.624055 14126 net.cpp:408] conv5_1 -> conv5_1
I0803 22:42:24.633970 14126 net.cpp:150] Setting up conv5_1
I0803 22:42:24.634019 14126 net.cpp:157] Top shape: 8 512 28 28 (3211264)
I0803 22:42:24.634024 14126 net.cpp:165] Memory required for data: 3615883296
I0803 22:42:24.634037 14126 layer_factory.hpp:77] Creating layer relu5_1
I0803 22:42:24.634049 14126 net.cpp:100] Creating Layer relu5_1
I0803 22:42:24.634055 14126 net.cpp:434] relu5_1 <- conv5_1
I0803 22:42:24.634081 14126 net.cpp:395] relu5_1 -> conv5_1 (in-place)
I0803 22:42:24.634277 14126 net.cpp:150] Setting up relu5_1
I0803 22:42:24.634286 14126 net.cpp:157] Top shape: 8 512 28 28 (3211264)
I0803 22:42:24.634290 14126 net.cpp:165] Memory required for data: 3628728352
I0803 22:42:24.634294 14126 layer_factory.hpp:77] Creating layer conv5_2
I0803 22:42:24.634306 14126 net.cpp:100] Creating Layer conv5_2
I0803 22:42:24.634310 14126 net.cpp:434] conv5_2 <- conv5_1
I0803 22:42:24.634341 14126 net.cpp:408] conv5_2 -> conv5_2
I0803 22:42:24.644368 14126 net.cpp:150] Setting up conv5_2
I0803 22:42:24.644418 14126 net.cpp:157] Top shape: 8 512 28 28 (3211264)
I0803 22:42:24.644421 14126 net.cpp:165] Memory required for data: 3641573408
I0803 22:42:24.644436 14126 layer_factory.hpp:77] Creating layer relu5_2
I0803 22:42:24.644459 14126 net.cpp:100] Creating Layer relu5_2
I0803 22:42:24.644464 14126 net.cpp:434] relu5_2 <- conv5_2
I0803 22:42:24.644476 14126 net.cpp:395] relu5_2 -> conv5_2 (in-place)
I0803 22:42:24.644695 14126 net.cpp:150] Setting up relu5_2
I0803 22:42:24.644706 14126 net.cpp:157] Top shape: 8 512 28 28 (3211264)
I0803 22:42:24.644709 14126 net.cpp:165] Memory required for data: 3654418464
I0803 22:42:24.644713 14126 layer_factory.hpp:77] Creating layer conv5_3
I0803 22:42:24.644727 14126 net.cpp:100] Creating Layer conv5_3
I0803 22:42:24.644731 14126 net.cpp:434] conv5_3 <- conv5_2
I0803 22:42:24.644739 14126 net.cpp:408] conv5_3 -> conv5_3
I0803 22:42:24.659458 14126 net.cpp:150] Setting up conv5_3
I0803 22:42:24.659520 14126 net.cpp:157] Top shape: 8 512 28 28 (3211264)
I0803 22:42:24.659526 14126 net.cpp:165] Memory required for data: 3667263520
I0803 22:42:24.659543 14126 layer_factory.hpp:77] Creating layer relu5_3
I0803 22:42:24.659559 14126 net.cpp:100] Creating Layer relu5_3
I0803 22:42:24.659566 14126 net.cpp:434] relu5_3 <- conv5_3
I0803 22:42:24.659579 14126 net.cpp:395] relu5_3 -> conv5_3 (in-place)
I0803 22:42:24.659823 14126 net.cpp:150] Setting up relu5_3
I0803 22:42:24.659835 14126 net.cpp:157] Top shape: 8 512 28 28 (3211264)
I0803 22:42:24.659839 14126 net.cpp:165] Memory required for data: 3680108576
I0803 22:42:24.659844 14126 layer_factory.hpp:77] Creating layer conv5_3_relu5_3_0_split
I0803 22:42:24.659884 14126 net.cpp:100] Creating Layer conv5_3_relu5_3_0_split
I0803 22:42:24.659893 14126 net.cpp:434] conv5_3_relu5_3_0_split <- conv5_3
I0803 22:42:24.659899 14126 net.cpp:408] conv5_3_relu5_3_0_split -> conv5_3_relu5_3_0_split_0
I0803 22:42:24.659910 14126 net.cpp:408] conv5_3_relu5_3_0_split -> conv5_3_relu5_3_0_split_1
I0803 22:42:24.659967 14126 net.cpp:150] Setting up conv5_3_relu5_3_0_split
I0803 22:42:24.659976 14126 net.cpp:157] Top shape: 8 512 28 28 (3211264)
I0803 22:42:24.659981 14126 net.cpp:157] Top shape: 8 512 28 28 (3211264)
I0803 22:42:24.659986 14126 net.cpp:165] Memory required for data: 3705798688
I0803 22:42:24.660001 14126 layer_factory.hpp:77] Creating layer bilinear_layer
I0803 22:42:24.660019 14126 net.cpp:100] Creating Layer bilinear_layer
I0803 22:42:24.660025 14126 net.cpp:434] bilinear_layer <- conv5_3_relu5_3_0_split_0
I0803 22:42:24.660032 14126 net.cpp:434] bilinear_layer <- conv5_3_relu5_3_0_split_1
I0803 22:42:24.660038 14126 net.cpp:408] bilinear_layer -> bilinear
I0803 22:42:24.661120 14126 net.cpp:150] Setting up bilinear_layer
I0803 22:42:24.661134 14126 net.cpp:157] Top shape: 8 8192 1 1 (65536)
I0803 22:42:24.661139 14126 net.cpp:165] Memory required for data: 3706060832
I0803 22:42:24.661142 14126 layer_factory.hpp:77] Creating layer signed_sqrt_layer
I0803 22:42:24.661150 14126 net.cpp:100] Creating Layer signed_sqrt_layer
I0803 22:42:24.661154 14126 net.cpp:434] signed_sqrt_layer <- bilinear
I0803 22:42:24.661162 14126 net.cpp:408] signed_sqrt_layer -> bilinear_sqrt
I0803 22:42:24.661190 14126 net.cpp:150] Setting up signed_sqrt_layer
I0803 22:42:24.661200 14126 net.cpp:157] Top shape: 8 8192 1 1 (65536)
I0803 22:42:24.661203 14126 net.cpp:165] Memory required for data: 3706322976
I0803 22:42:24.661208 14126 layer_factory.hpp:77] Creating layer l2_normalization_layer
I0803 22:42:24.661216 14126 net.cpp:100] Creating Layer l2_normalization_layer
I0803 22:42:24.661221 14126 net.cpp:434] l2_normalization_layer <- bilinear_sqrt
I0803 22:42:24.661226 14126 net.cpp:408] l2_normalization_layer -> bilinear_l2
I0803 22:42:24.661270 14126 net.cpp:150] Setting up l2_normalization_layer
I0803 22:42:24.661278 14126 net.cpp:157] Top shape: 8 8192 1 1 (65536)
I0803 22:42:24.661281 14126 net.cpp:165] Memory required for data: 3706585120
I0803 22:42:24.661322 14126 layer_factory.hpp:77] Creating layer fc8_cub200
I0803 22:42:24.661334 14126 net.cpp:100] Creating Layer fc8_cub200
I0803 22:42:24.661351 14126 net.cpp:434] fc8_cub200 <- bilinear_l2
I0803 22:42:24.661358 14126 net.cpp:408] fc8_cub200 -> fc8_cub
I0803 22:42:24.667927 14126 net.cpp:150] Setting up fc8_cub200
I0803 22:42:24.667951 14126 net.cpp:157] Top shape: 8 200 (1600)
I0803 22:42:24.667966 14126 net.cpp:165] Memory required for data: 3706591520
I0803 22:42:24.667976 14126 layer_factory.hpp:77] Creating layer loss
I0803 22:42:24.668009 14126 net.cpp:100] Creating Layer loss
I0803 22:42:24.668015 14126 net.cpp:434] loss <- fc8_cub
I0803 22:42:24.668020 14126 net.cpp:434] loss <- label
I0803 22:42:24.668028 14126 net.cpp:408] loss -> loss
I0803 22:42:24.668056 14126 layer_factory.hpp:77] Creating layer loss
…
I0803 22:42:24.672204 14126 net.cpp:58] Initializing net from parameters: 
name: "CUBCompactBilinearNet"
state {
  phase: TEST
}
layer {
  name: "data"
  type: "ImageData"
  top: "data"
  top: "label"
  include {
    phase: TEST
  }
  transform_param {
    mirror: false
    crop_size: 448
    mean_value: 104
    mean_value: 117
    mean_value: 123
  }
  image_data_param {
    source: "examples/compact_bilinear/test_images.txt"
    batch_size: 4
    shuffle: true
    new_height: 512
    new_width: 512
    root_folder: "examples/compact_bilinear/cub/images/"
  }
}
layer {
  name: "conv1_1"
  type: "Convolution"
  bottom: "data"
  top: "conv1_1"
  param {
    lr_mult: 1
    decay_mult: 1
  }
  param {
    lr_mult: 2
    decay_mult: 2
  }
  convolution_param {
    num_output: 64
    pad: 1
    kernel_size: 3
  }
}
layer {
  name: "relu1_1"
  type: "ReLU"
  bottom: "conv1_1"
  top: "conv1_1"
}
layer {
  name: "conv1_2"
  type: "Convolution"
  bottom: "conv1_1"
  top: "conv1_2"
  param {
    lr_mult: 1
    decay_mult: 1
  }
  param {
    lr_mult: 2
    decay_mult: 2
  }
  convolution_param {
    num_output: 64
    pad: 1
    kernel_size: 3
  }
}
layer {
  name: "relu1_2"
  type: "ReLU"
  bottom: "conv1_2"
  top: "conv1_2"
}
layer {
  name: "pool1"
  type: "Pooling"
  bottom: "conv1_2"
  top: "pool1"
  pooling_param {
    pool: MAX
    kernel_size: 2
    stride: 2
  }
}
layer {
  name: "conv2_1"
  type: "Convolution"
  bottom: "pool1"
  top: "conv2_1"
  param {
    lr_mult: 1
    decay_mult: 1
  }
  param {
    lr_mult: 2
    decay_mult: 2
  }
  convolution_param {
    num_output: 128
    pad: 1
    kernel_size: 3
  }
}
layer {
  name: "relu2_1"
  type: "ReLU"
  bottom: "conv2_1"
  top: "conv2_1"
}
layer {
  name: "conv2_2"
  type: "Convolution"
  bottom: "conv2_1"
  top: "conv2_2"
  param {
    lr_mult: 1
    decay_mult: 1
  }
  param {
    lr_mult: 2
    decay_mult: 2
  }
  convolution_param {
    num_output: 128
    pad: 1
    kernel_size: 3
  }
}
layer {
  name: "relu2_2"
  type: "ReLU"
  bottom: "conv2_2"
  top: "conv2_2"
}
layer {
  name: "pool2"
  type: "Pooling"
  bottom: "conv2_2"
  top: "pool2"
  pooling_param {
    pool: MAX
    kernel_size: 2
    stride: 2
  }
}
layer {
  name: "conv3_1"
  type: "Convolution"
  bottom: "pool2"
  top: "conv3_1"
  param {
    lr_mult: 1
    decay_mult: 1
  }
  param {
    lr_mult: 2
    decay_mult: 2
  }
  convolution_param {
    num_output: 256
    pad: 1
    kernel_size: 3
  }
}
layer {
  name: "relu3_1"
  type: "ReLU"
  bottom: "conv3_1"
  top: "conv3_1"
}
layer {
  name: "conv3_2"
  type: "Convolution"
  bottom: "conv3_1"
  top: "conv3_2"
  param {
    lr_mult: 1
    decay_mult: 1
  }
  param {
    lr_mult: 2
    decay_mult: 2
  }
  convolution_param {
    num_output: 256
    pad: 1
    kernel_size: 3
  }
}
layer {
  name: "relu3_2"
  type: "ReLU"
  bottom: "conv3_2"
  top: "conv3_2"
}
layer {
  name: "conv3_3"
  type: "Convolution"
  bottom: "conv3_2"
  top: "conv3_3"
  param {
    lr_mult: 1
    decay_mult: 1
  }
  param {
    lr_mult: 2
    decay_mult: 2
  }
  convolution_param {
    num_output: 256
    pad: 1
    kernel_size: 3
  }
}
layer {
  name: "relu3_3"
  type: "ReLU"
  bottom: "conv3_3"
  top: "conv3_3"
}
layer {
  name: "pool3"
  type: "Pooling"
  bottom: "conv3_3"
  top: "pool3"
  pooling_param {
    pool: MAX
    kernel_size: 2
    stride: 2
  }
}
layer {
  name: "conv4_1"
  type: "Convolution"
  bottom: "pool3"
  top: "conv4_1"
  param {
    lr_mult: 1
    decay_mult: 1
  }
  param {
    lr_mult: 2
    decay_mult: 2
  }
  convolution_param {
    num_output: 512
    pad: 1
    kernel_size: 3
  }
}
layer {
  name: "relu4_1"
  type: "ReLU"
  bottom: "conv4_1"
  top: "conv4_1"
}
layer {
  name: "conv4_2"
  type: "Convolution"
  bottom: "conv4_1"
  top: "conv4_2"
  param {
    lr_mult: 1
    decay_mult: 1
  }
  param {
    lr_mult: 2
    decay_mult: 2
  }
  convolution_param {
    num_output: 512
    pad: 1
    kernel_size: 3
  }
}
layer {
  name: "relu4_2"
  type: "ReLU"
  bottom: "conv4_2"
  top: "conv4_2"
}
layer {
  name: "conv4_3"
  type: "Convolution"
  bottom: "conv4_2"
  top: "conv4_3"
  param {
    lr_mult: 1
    decay_mult: 1
  }
  param {
    lr_mult: 2
    decay_mult: 2
  }
  convolution_param {
    num_output: 512
    pad: 1
    kernel_size: 3
  }
}
layer {
  name: "relu4_3"
  type: "ReLU"
  bottom: "conv4_3"
  top: "conv4_3"
}
layer {
  name: "pool4"
  type: "Pooling"
  bottom: "conv4_3"
  top: "pool4"
  pooling_param {
    pool: MAX
    kernel_size: 2
    stride: 2
  }
}
layer {
  name: "conv5_1"
  type: "Convolution"
  bottom: "pool4"
  top: "conv5_1"
  param {
    lr_mult: 1
    decay_mult: 1
  }
  param {
    lr_mult: 2
    decay_mult: 2
  }
  convolution_param {
    num_output: 512
    pad: 1
    kernel_size: 3
  }
}
layer {
  name: "relu5_1"
  type: "ReLU"
  bottom: "conv5_1"
  top: "conv5_1"
}
layer {
  name: "conv5_2"
  type: "Convolution"
  bottom: "conv5_1"
  top: "conv5_2"
  param {
    lr_mult: 1
    decay_mult: 1
  }
  param {
    lr_mult: 2
    decay_mult: 2
  }
  convolution_param {
    num_output: 512
    pad: 1
    kernel_size: 3
  }
}
layer {
  name: "relu5_2"
  type: "ReLU"
  bottom: "conv5_2"
  top: "conv5_2"
}
layer {
  name: "conv5_3"
  type: "Convolution"
  bottom: "conv5_2"
  top: "conv5_3"
  param {
    lr_mult: 1
    decay_mult: 1
  }
  param {
    lr_mult: 2
    decay_mult: 2
  }
  convolution_param {
    num_output: 512
    pad: 1
    kernel_size: 3
  }
}
layer {
  name: "relu5_3"
  type: "ReLU"
  bottom: "conv5_3"
  top: "conv5_3"
}
layer {
  name: "bilinear_layer"
  type: "CompactBilinear"
  bottom: "conv5_3"
  bottom: "conv5_3"
  top: "bilinear"
  compact_bilinear_param {
    num_output: 8192
    sum_pool: true
  }
}
layer {
  name: "signed_sqrt_layer"
  type: "SignedSqrt"
  bottom: "bilinear"
  top: "bilinear_sqrt"
}
layer {
  name: "l2_normalization_layer"
  type: "Normalize"
  bottom: "bilinear_sqrt"
  top: "bilinear_l2"
}
layer {
  name: "fc8_cub200"
  type: "InnerProduct"
  bottom: "bilinear_l2"
  top: "fc8_cub"
  param {
    lr_mult: 1
    decay_mult: 1
  }
  param {
    lr_mult: 2
    decay_mult: 2
  }
  inner_product_param {
    num_output: 200
  }
}
layer {
  name: "loss"
  type: "SoftmaxWithLoss"
  bottom: "fc8_cub"
  bottom: "label"
  top: "loss"
}
layer {
  name: "accuracy"
  type: "Accuracy"
  bottom: "fc8_cub"
  bottom: "label"
  top: "accuracy"
  include {
    phase: TEST
  }
}
I0803 22:42:24.672363 14126 layer_factory.hpp:77] Creating layer data
I0803 22:42:24.672382 14126 net.cpp:100] Creating Layer data
I0803 22:42:24.672389 14126 net.cpp:408] data -> data
I0803 22:42:24.672399 14126 net.cpp:408] data -> label
I0803 22:42:24.672410 14126 image_data_layer.cpp:38] Opening file examples/compact_bilinear/test_images.txt
I0803 22:42:24.677532 14126 image_data_layer.cpp:64] Shuffling data
I0803 22:42:24.678681 14126 image_data_layer.cpp:69] A total of 5794 images.
I0803 22:42:24.683563 14126 image_data_layer.cpp:97] output data size: 4,3,448,448
I0803 22:42:24.712004 14126 net.cpp:150] Setting up data
I0803 22:42:24.712051 14126 net.cpp:157] Top shape: 4 3 448 448 (2408448)
I0803 22:42:24.712059 14126 net.cpp:157] Top shape: 4 1 (4)
I0803 22:42:24.712067 14126 net.cpp:165] Memory required for data: 9633808
I0803 22:42:24.712079 14126 layer_factory.hpp:77] Creating layer label_data_1_split
I0803 22:42:24.712100 14126 net.cpp:100] Creating Layer label_data_1_split
I0803 22:42:24.712106 14126 net.cpp:434] label_data_1_split <- label
I0803 22:42:24.712117 14126 net.cpp:408] label_data_1_split -> label_data_1_split_0
I0803 22:42:24.712132 14126 net.cpp:408] label_data_1_split -> label_data_1_split_1
I0803 22:42:24.712309 14126 net.cpp:150] Setting up label_data_1_split
I0803 22:42:24.712323 14126 net.cpp:157] Top shape: 4 1 (4)
I0803 22:42:24.712328 14126 net.cpp:157] Top shape: 4 1 (4)
I0803 22:42:24.712332 14126 net.cpp:165] Memory required for data: 9633840
I0803 22:42:24.712383 14126 layer_factory.hpp:77] Creating layer conv1_1
I0803 22:42:24.712401 14126 net.cpp:100] Creating Layer conv1_1
I0803 22:42:24.712406 14126 net.cpp:434] conv1_1 <- data
I0803 22:42:24.712414 14126 net.cpp:408] conv1_1 -> conv1_1
I0803 22:42:24.718453 14126 net.cpp:150] Setting up conv1_1
I0803 22:42:24.718478 14126 net.cpp:157] Top shape: 4 64 448 448 (51380224)
I0803 22:42:24.718484 14126 net.cpp:165] Memory required for data: 215154736
I0803 22:42:24.718505 14126 layer_factory.hpp:77] Creating layer relu1_1
I0803 22:42:24.718520 14126 net.cpp:100] Creating Layer relu1_1
I0803 22:42:24.718549 14126 net.cpp:434] relu1_1 <- conv1_1
I0803 22:42:24.718572 14126 net.cpp:395] relu1_1 -> conv1_1 (in-place)
I0803 22:42:24.718922 14126 net.cpp:150] Setting up relu1_1
I0803 22:42:24.718940 14126 net.cpp:157] Top shape: 4 64 448 448 (51380224)
I0803 22:42:24.718947 14126 net.cpp:165] Memory required for data: 420675632
I0803 22:42:24.718955 14126 layer_factory.hpp:77] Creating layer conv1_2
I0803 22:42:24.718974 14126 net.cpp:100] Creating Layer conv1_2
I0803 22:42:24.719004 14126 net.cpp:434] conv1_2 <- conv1_1
I0803 22:42:24.719022 14126 net.cpp:408] conv1_2 -> conv1_2
I0803 22:42:24.726378 14126 net.cpp:150] Setting up conv1_2
I0803 22:42:24.726423 14126 net.cpp:157] Top shape: 4 64 448 448 (51380224)
I0803 22:42:24.726428 14126 net.cpp:165] Memory required for data: 626196528
I0803 22:42:24.726449 14126 layer_factory.hpp:77] Creating layer relu1_2
I0803 22:42:24.726465 14126 net.cpp:100] Creating Layer relu1_2
I0803 22:42:24.726470 14126 net.cpp:434] relu1_2 <- conv1_2
I0803 22:42:24.726481 14126 net.cpp:395] relu1_2 -> conv1_2 (in-place)
I0803 22:42:24.726722 14126 net.cpp:150] Setting up relu1_2
I0803 22:42:24.726735 14126 net.cpp:157] Top shape: 4 64 448 448 (51380224)
I0803 22:42:24.726739 14126 net.cpp:165] Memory required for data: 831717424
I0803 22:42:24.726743 14126 layer_factory.hpp:77] Creating layer pool1
I0803 22:42:24.726754 14126 net.cpp:100] Creating Layer pool1
I0803 22:42:24.726758 14126 net.cpp:434] pool1 <- conv1_2
I0803 22:42:24.726766 14126 net.cpp:408] pool1 -> pool1
I0803 22:42:24.726830 14126 net.cpp:150] Setting up pool1
I0803 22:42:24.726840 14126 net.cpp:157] Top shape: 4 64 224 224 (12845056)
I0803 22:42:24.726843 14126 net.cpp:165] Memory required for data: 883097648
I0803 22:42:24.726850 14126 layer_factory.hpp:77] Creating layer conv2_1
I0803 22:42:24.726862 14126 net.cpp:100] Creating Layer conv2_1
I0803 22:42:24.726869 14126 net.cpp:434] conv2_1 <- pool1
I0803 22:42:24.726876 14126 net.cpp:408] conv2_1 -> conv2_1
I0803 22:42:24.729295 14126 net.cpp:150] Setting up conv2_1
I0803 22:42:24.729326 14126 net.cpp:157] Top shape: 4 128 224 224 (25690112)
I0803 22:42:24.729333 14126 net.cpp:165] Memory required for data: 985858096
I0803 22:42:24.729358 14126 layer_factory.hpp:77] Creating layer relu2_1
I0803 22:42:24.729377 14126 net.cpp:100] Creating Layer relu2_1
I0803 22:42:24.729432 14126 net.cpp:434] relu2_1 <- conv2_1
I0803 22:42:24.729461 14126 net.cpp:395] relu2_1 -> conv2_1 (in-place)
I0803 22:42:24.729734 14126 net.cpp:150] Setting up relu2_1
I0803 22:42:24.729749 14126 net.cpp:157] Top shape: 4 128 224 224 (25690112)
I0803 22:42:24.729755 14126 net.cpp:165] Memory required for data: 1088618544
I0803 22:42:24.729763 14126 layer_factory.hpp:77] Creating layer conv2_2
I0803 22:42:24.729784 14126 net.cpp:100] Creating Layer conv2_2
I0803 22:42:24.729792 14126 net.cpp:434] conv2_2 <- conv2_1
I0803 22:42:24.729806 14126 net.cpp:408] conv2_2 -> conv2_2
I0803 22:42:24.735849 14126 net.cpp:150] Setting up conv2_2
I0803 22:42:24.735914 14126 net.cpp:157] Top shape: 4 128 224 224 (25690112)
I0803 22:42:24.735925 14126 net.cpp:165] Memory required for data: 1191378992
I0803 22:42:24.735950 14126 layer_factory.hpp:77] Creating layer relu2_2
I0803 22:42:24.735975 14126 net.cpp:100] Creating Layer relu2_2
I0803 22:42:24.735985 14126 net.cpp:434] relu2_2 <- conv2_2
I0803 22:42:24.736002 14126 net.cpp:395] relu2_2 -> conv2_2 (in-place)
I0803 22:42:24.736536 14126 net.cpp:150] Setting up relu2_2
I0803 22:42:24.736601 14126 net.cpp:157] Top shape: 4 128 224 224 (25690112)
I0803 22:42:24.736611 14126 net.cpp:165] Memory required for data: 1294139440
I0803 22:42:24.736620 14126 layer_factory.hpp:77] Creating layer pool2
I0803 22:42:24.736641 14126 net.cpp:100] Creating Layer pool2
I0803 22:42:24.736651 14126 net.cpp:434] pool2 <- conv2_2
I0803 22:42:24.736670 14126 net.cpp:408] pool2 -> pool2
I0803 22:42:24.736816 14126 net.cpp:150] Setting up pool2
I0803 22:42:24.736831 14126 net.cpp:157] Top shape: 4 128 112 112 (6422528)
I0803 22:42:24.736840 14126 net.cpp:165] Memory required for data: 1319829552
I0803 22:42:24.736845 14126 layer_factory.hpp:77] Creating layer conv3_1
I0803 22:42:24.736871 14126 net.cpp:100] Creating Layer conv3_1
I0803 22:42:24.736882 14126 net.cpp:434] conv3_1 <- pool2
I0803 22:42:24.736898 14126 net.cpp:408] conv3_1 -> conv3_1
I0803 22:42:24.747622 14126 net.cpp:150] Setting up conv3_1
I0803 22:42:24.747687 14126 net.cpp:157] Top shape: 4 256 112 112 (12845056)
I0803 22:42:24.747697 14126 net.cpp:165] Memory required for data: 1371209776
I0803 22:42:24.747736 14126 layer_factory.hpp:77] Creating layer relu3_1
I0803 22:42:24.747799 14126 net.cpp:100] Creating Layer relu3_1
I0803 22:42:24.747831 14126 net.cpp:434] relu3_1 <- conv3_1
I0803 22:42:24.747864 14126 net.cpp:395] relu3_1 -> conv3_1 (in-place)
I0803 22:42:24.748482 14126 net.cpp:150] Setting up relu3_1
I0803 22:42:24.748529 14126 net.cpp:157] Top shape: 4 256 112 112 (12845056)
I0803 22:42:24.748555 14126 net.cpp:165] Memory required for data: 1422590000
I0803 22:42:24.748580 14126 layer_factory.hpp:77] Creating layer conv3_2
I0803 22:42:24.748626 14126 net.cpp:100] Creating Layer conv3_2
I0803 22:42:24.748653 14126 net.cpp:434] conv3_2 <- conv3_1
I0803 22:42:24.748684 14126 net.cpp:408] conv3_2 -> conv3_2
I0803 22:42:24.758378 14126 net.cpp:150] Setting up conv3_2
I0803 22:42:24.758535 14126 net.cpp:157] Top shape: 4 256 112 112 (12845056)
I0803 22:42:24.758561 14126 net.cpp:165] Memory required for data: 1473970224
I0803 22:42:24.758605 14126 layer_factory.hpp:77] Creating layer relu3_2
I0803 22:42:24.758649 14126 net.cpp:100] Creating Layer relu3_2
I0803 22:42:24.758688 14126 net.cpp:434] relu3_2 <- conv3_2
I0803 22:42:24.758724 14126 net.cpp:395] relu3_2 -> conv3_2 (in-place)
I0803 22:42:24.762064 14126 net.cpp:150] Setting up relu3_2
I0803 22:42:24.762181 14126 net.cpp:157] Top shape: 4 256 112 112 (12845056)
I0803 22:42:24.762212 14126 net.cpp:165] Memory required for data: 1525350448
I0803 22:42:24.762255 14126 layer_factory.hpp:77] Creating layer conv3_3
I0803 22:42:24.762308 14126 net.cpp:100] Creating Layer conv3_3
I0803 22:42:24.762341 14126 net.cpp:434] conv3_3 <- conv3_2
I0803 22:42:24.762389 14126 net.cpp:408] conv3_3 -> conv3_3
I0803 22:42:24.772446 14126 net.cpp:150] Setting up conv3_3
I0803 22:42:24.772594 14126 net.cpp:157] Top shape: 4 256 112 112 (12845056)
I0803 22:42:24.772625 14126 net.cpp:165] Memory required for data: 1576730672
I0803 22:42:24.772681 14126 layer_factory.hpp:77] Creating layer relu3_3
I0803 22:42:24.772725 14126 net.cpp:100] Creating Layer relu3_3
I0803 22:42:24.772753 14126 net.cpp:434] relu3_3 <- conv3_3
I0803 22:42:24.772786 14126 net.cpp:395] relu3_3 -> conv3_3 (in-place)
I0803 22:42:24.773429 14126 net.cpp:150] Setting up relu3_3
I0803 22:42:24.773480 14126 net.cpp:157] Top shape: 4 256 112 112 (12845056)
I0803 22:42:24.773507 14126 net.cpp:165] Memory required for data: 1628110896
I0803 22:42:24.773536 14126 layer_factory.hpp:77] Creating layer pool3
I0803 22:42:24.773587 14126 net.cpp:100] Creating Layer pool3
I0803 22:42:24.773610 14126 net.cpp:434] pool3 <- conv3_3
I0803 22:42:24.773648 14126 net.cpp:408] pool3 -> pool3
I0803 22:42:24.773835 14126 net.cpp:150] Setting up pool3
I0803 22:42:24.773869 14126 net.cpp:157] Top shape: 4 256 56 56 (3211264)
I0803 22:42:24.773910 14126 net.cpp:165] Memory required for data: 1640955952
I0803 22:42:24.773936 14126 layer_factory.hpp:77] Creating layer conv4_1
I0803 22:42:24.773985 14126 net.cpp:100] Creating Layer conv4_1
I0803 22:42:24.774055 14126 net.cpp:434] conv4_1 <- pool3
I0803 22:42:24.774089 14126 net.cpp:408] conv4_1 -> conv4_1
I0803 22:42:24.787647 14126 net.cpp:150] Setting up conv4_1
I0803 22:42:24.787715 14126 net.cpp:157] Top shape: 4 512 56 56 (6422528)
I0803 22:42:24.787725 14126 net.cpp:165] Memory required for data: 1666646064
I0803 22:42:24.787748 14126 layer_factory.hpp:77] Creating layer relu4_1
I0803 22:42:24.787770 14126 net.cpp:100] Creating Layer relu4_1
I0803 22:42:24.787778 14126 net.cpp:434] relu4_1 <- conv4_1
I0803 22:42:24.787794 14126 net.cpp:395] relu4_1 -> conv4_1 (in-place)
I0803 22:42:24.788272 14126 net.cpp:150] Setting up relu4_1
I0803 22:42:24.788287 14126 net.cpp:157] Top shape: 4 512 56 56 (6422528)
I0803 22:42:24.788295 14126 net.cpp:165] Memory required for data: 1692336176
I0803 22:42:24.788302 14126 layer_factory.hpp:77] Creating layer conv4_2
I0803 22:42:24.788321 14126 net.cpp:100] Creating Layer conv4_2
I0803 22:42:24.788327 14126 net.cpp:434] conv4_2 <- conv4_1
I0803 22:42:24.788339 14126 net.cpp:408] conv4_2 -> conv4_2
I0803 22:42:24.801584 14126 net.cpp:150] Setting up conv4_2
I0803 22:42:24.801636 14126 net.cpp:157] Top shape: 4 512 56 56 (6422528)
I0803 22:42:24.801641 14126 net.cpp:165] Memory required for data: 1718026288
I0803 22:42:24.801666 14126 layer_factory.hpp:77] Creating layer relu4_2
I0803 22:42:24.801681 14126 net.cpp:100] Creating Layer relu4_2
I0803 22:42:24.801687 14126 net.cpp:434] relu4_2 <- conv4_2
I0803 22:42:24.801697 14126 net.cpp:395] relu4_2 -> conv4_2 (in-place)
I0803 22:42:24.801924 14126 net.cpp:150] Setting up relu4_2
I0803 22:42:24.801936 14126 net.cpp:157] Top shape: 4 512 56 56 (6422528)
I0803 22:42:24.801940 14126 net.cpp:165] Memory required for data: 1743716400
I0803 22:42:24.801945 14126 layer_factory.hpp:77] Creating layer conv4_3
I0803 22:42:24.801957 14126 net.cpp:100] Creating Layer conv4_3
I0803 22:42:24.801961 14126 net.cpp:434] conv4_3 <- conv4_2
I0803 22:42:24.801970 14126 net.cpp:408] conv4_3 -> conv4_3
I0803 22:42:24.811295 14126 net.cpp:150] Setting up conv4_3
I0803 22:42:24.811329 14126 net.cpp:157] Top shape: 4 512 56 56 (6422528)
I0803 22:42:24.811345 14126 net.cpp:165] Memory required for data: 1769406512
I0803 22:42:24.811354 14126 layer_factory.hpp:77] Creating layer relu4_3
I0803 22:42:24.811363 14126 net.cpp:100] Creating Layer relu4_3
I0803 22:42:24.811368 14126 net.cpp:434] relu4_3 <- conv4_3
I0803 22:42:24.811375 14126 net.cpp:395] relu4_3 -> conv4_3 (in-place)
I0803 22:42:24.811609 14126 net.cpp:150] Setting up relu4_3
I0803 22:42:24.811620 14126 net.cpp:157] Top shape: 4 512 56 56 (6422528)
I0803 22:42:24.811625 14126 net.cpp:165] Memory required for data: 1795096624
I0803 22:42:24.811630 14126 layer_factory.hpp:77] Creating layer pool4
I0803 22:42:24.811637 14126 net.cpp:100] Creating Layer pool4
I0803 22:42:24.811645 14126 net.cpp:434] pool4 <- conv4_3
I0803 22:42:24.811651 14126 net.cpp:408] pool4 -> pool4
I0803 22:42:24.811722 14126 net.cpp:150] Setting up pool4
I0803 22:42:24.811730 14126 net.cpp:157] Top shape: 4 512 28 28 (1605632)
I0803 22:42:24.811733 14126 net.cpp:165] Memory required for data: 1801519152
I0803 22:42:24.811736 14126 layer_factory.hpp:77] Creating layer conv5_1
I0803 22:42:24.811746 14126 net.cpp:100] Creating Layer conv5_1
I0803 22:42:24.811753 14126 net.cpp:434] conv5_1 <- pool4
I0803 22:42:24.811758 14126 net.cpp:408] conv5_1 -> conv5_1
I0803 22:42:24.826553 14126 net.cpp:150] Setting up conv5_1
I0803 22:42:24.826596 14126 net.cpp:157] Top shape: 4 512 28 28 (1605632)
I0803 22:42:24.826599 14126 net.cpp:165] Memory required for data: 1807941680
I0803 22:42:24.826609 14126 layer_factory.hpp:77] Creating layer relu5_1
I0803 22:42:24.826619 14126 net.cpp:100] Creating Layer relu5_1
I0803 22:42:24.826625 14126 net.cpp:434] relu5_1 <- conv5_1
I0803 22:42:24.826632 14126 net.cpp:395] relu5_1 -> conv5_1 (in-place)
I0803 22:42:24.826872 14126 net.cpp:150] Setting up relu5_1
I0803 22:42:24.826884 14126 net.cpp:157] Top shape: 4 512 28 28 (1605632)
I0803 22:42:24.826889 14126 net.cpp:165] Memory required for data: 1814364208
I0803 22:42:24.826922 14126 layer_factory.hpp:77] Creating layer conv5_2
I0803 22:42:24.826936 14126 net.cpp:100] Creating Layer conv5_2
I0803 22:42:24.826941 14126 net.cpp:434] conv5_2 <- conv5_1
I0803 22:42:24.826951 14126 net.cpp:408] conv5_2 -> conv5_2
I0803 22:42:24.835386 14126 net.cpp:150] Setting up conv5_2
I0803 22:42:24.835408 14126 net.cpp:157] Top shape: 4 512 28 28 (1605632)
I0803 22:42:24.835424 14126 net.cpp:165] Memory required for data: 1820786736
I0803 22:42:24.835434 14126 layer_factory.hpp:77] Creating layer relu5_2
I0803 22:42:24.835443 14126 net.cpp:100] Creating Layer relu5_2
I0803 22:42:24.835446 14126 net.cpp:434] relu5_2 <- conv5_2
I0803 22:42:24.835454 14126 net.cpp:395] relu5_2 -> conv5_2 (in-place)
I0803 22:42:24.836778 14126 net.cpp:150] Setting up relu5_2
I0803 22:42:24.836793 14126 net.cpp:157] Top shape: 4 512 28 28 (1605632)
I0803 22:42:24.836796 14126 net.cpp:165] Memory required for data: 1827209264
I0803 22:42:24.836810 14126 layer_factory.hpp:77] Creating layer conv5_3
I0803 22:42:24.836822 14126 net.cpp:100] Creating Layer conv5_3
I0803 22:42:24.836827 14126 net.cpp:434] conv5_3 <- conv5_2
I0803 22:42:24.836836 14126 net.cpp:408] conv5_3 -> conv5_3
I0803 22:42:24.848592 14126 net.cpp:150] Setting up conv5_3
I0803 22:42:24.848642 14126 net.cpp:157] Top shape: 4 512 28 28 (1605632)
I0803 22:42:24.848646 14126 net.cpp:165] Memory required for data: 1833631792
I0803 22:42:24.848660 14126 layer_factory.hpp:77] Creating layer relu5_3
I0803 22:42:24.848680 14126 net.cpp:100] Creating Layer relu5_3
I0803 22:42:24.848686 14126 net.cpp:434] relu5_3 <- conv5_3
I0803 22:42:24.848696 14126 net.cpp:395] relu5_3 -> conv5_3 (in-place)
I0803 22:42:24.848947 14126 net.cpp:150] Setting up relu5_3
I0803 22:42:24.848958 14126 net.cpp:157] Top shape: 4 512 28 28 (1605632)
I0803 22:42:24.848963 14126 net.cpp:165] Memory required for data: 1840054320
I0803 22:42:24.848966 14126 layer_factory.hpp:77] Creating layer conv5_3_relu5_3_0_split
I0803 22:42:24.848986 14126 net.cpp:100] Creating Layer conv5_3_relu5_3_0_split
I0803 22:42:24.848990 14126 net.cpp:434] conv5_3_relu5_3_0_split <- conv5_3
I0803 22:42:24.848999 14126 net.cpp:408] conv5_3_relu5_3_0_split -> conv5_3_relu5_3_0_split_0
I0803 22:42:24.849007 14126 net.cpp:408] conv5_3_relu5_3_0_split -> conv5_3_relu5_3_0_split_1
I0803 22:42:24.849064 14126 net.cpp:150] Setting up conv5_3_relu5_3_0_split
I0803 22:42:24.849074 14126 net.cpp:157] Top shape: 4 512 28 28 (1605632)
I0803 22:42:24.849081 14126 net.cpp:157] Top shape: 4 512 28 28 (1605632)
I0803 22:42:24.849083 14126 net.cpp:165] Memory required for data: 1852899376
I0803 22:42:24.849087 14126 layer_factory.hpp:77] Creating layer bilinear_layer
I0803 22:42:24.849095 14126 net.cpp:100] Creating Layer bilinear_layer
I0803 22:42:24.849100 14126 net.cpp:434] bilinear_layer <- conv5_3_relu5_3_0_split_0
I0803 22:42:24.849105 14126 net.cpp:434] bilinear_layer <- conv5_3_relu5_3_0_split_1
I0803 22:42:24.849113 14126 net.cpp:408] bilinear_layer -> bilinear
I0803 22:42:24.851146 14126 net.cpp:150] Setting up bilinear_layer
I0803 22:42:24.851173 14126 net.cpp:157] Top shape: 4 8192 1 1 (32768)
I0803 22:42:24.851177 14126 net.cpp:165] Memory required for data: 1853030448
I0803 22:42:24.851182 14126 layer_factory.hpp:77] Creating layer signed_sqrt_layer
I0803 22:42:24.851191 14126 net.cpp:100] Creating Layer signed_sqrt_layer
I0803 22:42:24.851197 14126 net.cpp:434] signed_sqrt_layer <- bilinear
I0803 22:42:24.851203 14126 net.cpp:408] signed_sqrt_layer -> bilinear_sqrt
I0803 22:42:24.851239 14126 net.cpp:150] Setting up signed_sqrt_layer
I0803 22:42:24.851248 14126 net.cpp:157] Top shape: 4 8192 1 1 (32768)
I0803 22:42:24.851253 14126 net.cpp:165] Memory required for data: 1853161520
I0803 22:42:24.851256 14126 layer_factory.hpp:77] Creating layer l2_normalization_layer
I0803 22:42:24.851264 14126 net.cpp:100] Creating Layer l2_normalization_layer
I0803 22:42:24.851269 14126 net.cpp:434] l2_normalization_layer <- bilinear_sqrt
I0803 22:42:24.851274 14126 net.cpp:408] l2_normalization_layer -> bilinear_l2
I0803 22:42:24.851359 14126 net.cpp:150] Setting up l2_normalization_layer
I0803 22:42:24.851367 14126 net.cpp:157] Top shape: 4 8192 1 1 (32768)
I0803 22:42:24.851372 14126 net.cpp:165] Memory required for data: 1853292592
I0803 22:42:24.851375 14126 layer_factory.hpp:77] Creating layer fc8_cub200
I0803 22:42:24.851384 14126 net.cpp:100] Creating Layer fc8_cub200
I0803 22:42:24.851389 14126 net.cpp:434] fc8_cub200 <- bilinear_l2
I0803 22:42:24.851397 14126 net.cpp:408] fc8_cub200 -> fc8_cub
I0803 22:42:24.857059 14126 net.cpp:150] Setting up fc8_cub200
I0803 22:42:24.857118 14126 net.cpp:157] Top shape: 4 200 (800)
I0803 22:42:24.857122 14126 net.cpp:165] Memory required for data: 1853295792
I0803 22:42:24.857136 14126 layer_factory.hpp:77] Creating layer fc8_cub_fc8_cub200_0_split
I0803 22:42:24.857151 14126 net.cpp:100] Creating Layer fc8_cub_fc8_cub200_0_split
I0803 22:42:24.857157 14126 net.cpp:434] fc8_cub_fc8_cub200_0_split <- fc8_cub
I0803 22:42:24.857169 14126 net.cpp:408] fc8_cub_fc8_cub200_0_split -> fc8_cub_fc8_cub200_0_split_0
I0803 22:42:24.857182 14126 net.cpp:408] fc8_cub_fc8_cub200_0_split -> fc8_cub_fc8_cub200_0_split_1
I0803 22:42:24.857256 14126 net.cpp:150] Setting up fc8_cub_fc8_cub200_0_split
I0803 22:42:24.857264 14126 net.cpp:157] Top shape: 4 200 (800)
I0803 22:42:24.857269 14126 net.cpp:157] Top shape: 4 200 (800)
I0803 22:42:24.857271 14126 net.cpp:165] Memory required for data: 1853302192
I0803 22:42:24.857288 14126 layer_factory.hpp:77] Creating layer loss
I0803 22:42:24.857296 14126 net.cpp:100] Creating Layer loss
I0803 22:42:24.857300 14126 net.cpp:434] loss <- fc8_cub_fc8_cub200_0_split_0
I0803 22:42:24.857306 14126 net.cpp:434] loss <- label_data_1_split_0
I0803 22:42:24.857324 14126 net.cpp:408] loss -> loss
…
